model.tflite (tflite, 132848 bytes, 7 tensors)

sequential_9/lstm_9/TensorArrayV2_1 f4 [1, 1, 80]
00000000: 0000 0000 0000 0000 0000 0000 0000 0000
00000010: 0000 0000 0000 0000 0000 0000 0000 0000
00000020: 0000 0000 0000 0000 0000 0000 0000 0000
00000030: 0000 0000 0000 0000 0000 0000 0000 0000
00000040: 0000 0000 0000 0000 0000 0000 0000 0000
00000050: 0000 0000 0000 0000 0000 0000 0000 0000
00000060: 0000 0000 0000 0000 0000 0000 0000 0000
00000070: 0000 0000 0000 0000 0000 0000 0000 0000
00000080: 0000 0000 0000 0000 0000 0000 0000 0000
00000090: 0000 0000 0000 0000 0000 0000 0000 0000
000000a0: 0000 0000 0000 0000 0000 0000 0000 0000
000000b0: 0000 0000 0000 0000 0000 0000 0000 0000
000000c0: 0000 0000 0000 0000 0000 0000 0000 0000
000000d0: 0000 0000 0000 0000 0000 0000 0000 0000
000000e0: 0000 0000 0000 0000 0000 0000 0000 0000
000000f0: 0000 0000 0000 0000 0000 0000 0000 0000
00000100: 0000 0000 0000 0000 0000 0000 0000 0000
00000110: 0000 0000 0000 0000 0000 0000 0000 0000
00000120: 0000 0000 0000 0000 0000 0000 0000 0000
00000130: 0000 0000 0000 0000 0000 0000 0000 0000
0.0 0.0 0.0 0.0 0.0 0.0 0.0 0.0
0.0 0.0 0.0 0.0 0.0 0.0 0.0 0.0
0.0 0.0 0.0 0.0 0.0 0.0 0.0 0.0
0.0 0.0 0.0 0.0 0.0 0.0 0.0 0.0
0.0 0.0 0.0 0.0 0.0 0.0 0.0 0.0
0.0 0.0 0.0 0.0 0.0 0.0 0.0 0.0
0.0 0.0 0.0 0.0 0.0 0.0 0.0 0.0
0.0 0.0 0.0 0.0 0.0 0.0 0.0 0.0
0.0 0.0 0.0 0.0 0.0 0.0 0.0 0.0
0.0 0.0 0.0 0.0 0.0 0.0 0.0 0.0

sequential_9/lstm_9/lstm_cell_9/BiasAdd/ReadVariableOp/resource f4 [320]
00000000: cba8 e53c b53e ee3c 4732 9cbb de70 ba3c
00000010: bda9 7c3c 433e 0b3d 0000 0000 4729 d53c
00000020: 88df 923c a0b0 0f3d a6ad c63c b7c1 b23c
00000030: 0000 0000 9f20 8bbc 0000 0000 e3fa e83c
00000040: 0000 0000 fa79 82bc 818d 123d b98b cd3c
00000050: ef64 c33c 0000 0000 d8c1 f03c e1d7 a5bc
00000060: f5e2 ce3c 1427 073d f1ea de3c ebed 21bc
00000070: 0000 0000 2f34 da3c 3525 d13c d81f dfbb
00000080: 386e 2cbc fe1f 033d e047 ae3c 42a2 3ebc
00000090: a427 11bc 8633 c83c 1075 18bc afcf 95bc
000000a0: 9336 a5bc 7cb1 74bc d6be aebc 7b19 94bc
000000b0: 782e 88bc 0000 0000 e618 26bc 0d2f 3cbc
000000c0: 0000 0000 0000 0000 4c32 52bc 0000 0000
000000d0: f33d fabb a4ea 003d 52c8 ccbc 81c8 003d
000000e0: cb11 003d 4afe c83c 0000 0000 a696 013d
000000f0: 6525 103d b190 fe3c af9b 83bc 0000 0000
00000100: 213d 9fbc 543a c73c 0000 0000 fe20 9ebc
00000110: daee b8bc 7598 d13c 0bb0 e53c 0000 0000
00000120: 65f3 33bc 9555 fd3c 0000 0000 ff24 9abc
00000130: 9167 17bc 0000 0000 df9f e53c 0000 0000
00000140: 0000 803f 0000 803f 0000 803f 0000 803f
00000150: 0000 803f 0000 803f 0000 803f 0000 803f
00000160: 0000 803f 0000 803f 0000 803f 0000 803f
00000170: 0000 803f 0000 803f 0000 803f 0000 803f
00000180: 0000 803f 0000 803f 0000 803f 0000 803f
00000190: 0000 803f 0000 803f 0000 803f 0000 803f
000001a0: 0000 803f 0000 803f 0000 803f 0000 803f
000001b0: 0000 803f 0000 803f 0000 803f 0000 803f
000001c0: 0000 803f 0000 803f 0000 803f 0000 803f
000001d0: 0000 803f 0000 803f 0000 803f 0000 803f
000001e0: 0000 803f 0000 803f 0000 803f 0000 803f
000001f0: 0000 803f 0000 803f 0000 803f 0000 803f
00000200: 0000 803f 0000 803f 0000 803f 0000 803f
00000210: 0000 803f 0000 803f 0000 803f 0000 803f
00000220: 0000 803f 0000 803f 0000 803f 0000 803f
00000230: 0000 803f 0000 803f 0000 803f 0000 803f
00000240: 0000 803f 0000 803f 0000 803f 0000 803f
00000250: 0000 803f 0000 803f 0000 803f 0000 803f
00000260: 0000 803f 0000 803f 0000 803f 0000 803f
00000270: 0000 803f 0000 803f 0000 803f 0000 803f
00000280: 946a 1b3d 26d5 ec3c 92e8 02bc 86d6 e83c
00000290: 2956 e23c bfcf 0b3d 0000 0000 943b ec3c
000002a0: 5a8d e83c b772 0b3d d3e6 f03c 552e 1f3d
000002b0: 0000 0000 9c41 8dbc 0000 0000 a906 043d
000002c0: 0000 0000 0ebf a1bc 0008 1c3d 1d63 eb3c
000002d0: 4baf 033d 0000 0000 8b06 053d ea6a a5bc
000002e0: 73e8 093d bc9c 0c3d 34fa f93c aec2 41bc
000002f0: 0000 0000 1278 f43c 2f34 053d a63d 58bc
00000300: f59f 64bc 70a8 213d e33f e53c fddc 6cbc
00000310: 538b 2bbc 945d de3c d361 39bc b208 cebc
00000320: 430f d6bc e08b 6dbc 51b1 ccbc a3cd a3bc
00000330: 163f a7bc 0000 0000 d667 48bc 22c6 69bc
00000340: 0000 0000 0000 0000 2a5a 82bc 0000 0000
00000350: 21a8 89bc dd99 103d 9977 0bbd 64a4 063d
00000360: 46f0 1d3d 28c4 f63c 0000 0000 3f36 1d3d
00000370: 7d35 1a3d 2b09 083d 7808 92bc 0000 0000
00000380: 4fb1 bfbc f4e4 f83c 0000 0000 0433 b6bc
00000390: 5d44 c2bc 7e9a fd3c 701b 133d 0000 0000
000003a0: 7a16 69bc d0b7 0e3d 0000 0000 ad44 cebc
000003b0: 88fa b4bb 0000 0000 df67 f83c 0000 0000
000003c0: a0a1 cd3c ba7c da3c 086a 99bb 7232 c43c
000003d0: d78c 683c 4767 073d 0000 0000 c7d8 e93c
000003e0: 827d 883c 0f71 073d ab5f ca3c 24a5 a83c
000003f0: 0000 0000 8fe6 8bbc 0000 0000 60aa f13c
0.028034588 0.029082635 -0.0047667357 0.022758897 0.015421328 0.033994924 0.0 0.02602066
0.017928854 0.035080552 0.024252724 0.021820886 0.0 -0.016983328 0.0 0.028439945
0.0 -0.015927304 0.03577948 0.025091039 0.02385184 0.0 0.029389307 -0.02024454
0.025254706 0.032996252 0.027211638 -0.009883384 0.0 0.026636211 0.025530437 -0.006809216
-0.010524325 0.032012932 0.021274507 -0.011635365 -0.008859549 0.02443863 -0.009305254 -0.018287508
-0.020167625 -0.014934894 -0.021331232 -0.018078556 -0.01662372 0.0 -0.010137772 -0.011485827
0.0 0.0 -0.0128293745 0.0 -0.0076367795 0.03147377 -0.024997864 0.031441215
0.03126697 0.024535317 0.0 0.03163781 0.035191912 0.031074854 -0.016065447 0.0
-0.019438328 0.024319805 0.0 -0.019302841 -0.02257483 0.025585392 0.028038045 0.0
-0.010983323 0.030924598 0.0 -0.01881647 -0.009241001 0.0 0.028030334 0.0
1.0 1.0 1.0 1.0 1.0 1.0 1.0 1.0
1.0 1.0 1.0 1.0 1.0 1.0 1.0 1.0
1.0 1.0 1.0 1.0 1.0 1.0 1.0 1.0
1.0 1.0 1.0 1.0 1.0 1.0 1.0 1.0
1.0 1.0 1.0 1.0 1.0 1.0 1.0 1.0
1.0 1.0 1.0 1.0 1.0 1.0 1.0 1.0
1.0 1.0 1.0 1.0 1.0 1.0 1.0 1.0
1.0 1.0 1.0 1.0 1.0 1.0 1.0 1.0
1.0 1.0 1.0 1.0 1.0 1.0 1.0 1.0
1.0 1.0 1.0 1.0 1.0 1.0 1.0 1.0
0.037943438 0.02891023 -0.007990019 0.028422605 0.027628975 0.03413367 0.0 0.028837003
0.028387714 0.034044947 0.02940694 0.038862545 0.0 -0.017243199 0.0 0.032232914
0.0 -0.019744422 0.038093567 0.028733784 0.032149594 0.0 0.032476943 -0.020192582
0.033668946 0.03432916 0.030514814 -0.0118262 0.0 0.02984241 0.03252047 -0.013198292
-0.013954152 0.039467275 0.027984565 -0.014456985 -0.010470229 0.02714423 -0.011314827 -0.02515063
-0.026130324 -0.014498681 -0.024986895 -0.019995516 -0.020415824 0.0 -0.012231788 -0.01426843
0.0 0.0 -0.015912134 0.0 -0.016803803 0.035302985 -0.034049604 0.03287162
0.03855922 0.030122831 0.0 0.03838181 0.037648667 0.03321187 -0.017826304 0.0
-0.023399977 0.03038261 0.0 -0.022241123 -0.023714239 0.030957457 0.03591484 0.0
-0.01422655 0.034843266 0.0 -0.025179232 -0.0055230297 0.0 0.030322967 0.0
0.025101483 0.026670802 -0.0046818294 0.023949835 0.014193735 0.033057477 0.0 0.02854575
0.01666141 0.033066805 0.024703821 0.020586558 0.0 -0.017077712 0.0 0.029500186

sequential_9/lstm_9/zeros f4 [1, 80]
00000000: 0000 0000 0000 0000 0000 0000 0000 0000
00000010: 0000 0000 0000 0000 0000 0000 0000 0000
00000020: 0000 0000 0000 0000 0000 0000 0000 0000
00000030: 0000 0000 0000 0000 0000 0000 0000 0000
00000040: 0000 0000 0000 0000 0000 0000 0000 0000
00000050: 0000 0000 0000 0000 0000 0000 0000 0000
00000060: 0000 0000 0000 0000 0000 0000 0000 0000
00000070: 0000 0000 0000 0000 0000 0000 0000 0000
00000080: 0000 0000 0000 0000 0000 0000 0000 0000
00000090: 0000 0000 0000 0000 0000 0000 0000 0000
000000a0: 0000 0000 0000 0000 0000 0000 0000 0000
000000b0: 0000 0000 0000 0000 0000 0000 0000 0000
000000c0: 0000 0000 0000 0000 0000 0000 0000 0000
000000d0: 0000 0000 0000 0000 0000 0000 0000 0000
000000e0: 0000 0000 0000 0000 0000 0000 0000 0000
000000f0: 0000 0000 0000 0000 0000 0000 0000 0000
00000100: 0000 0000 0000 0000 0000 0000 0000 0000
00000110: 0000 0000 0000 0000 0000 0000 0000 0000
00000120: 0000 0000 0000 0000 0000 0000 0000 0000
00000130: 0000 0000 0000 0000 0000 0000 0000 0000
0.0 0.0 0.0 0.0 0.0 0.0 0.0 0.0
0.0 0.0 0.0 0.0 0.0 0.0 0.0 0.0
0.0 0.0 0.0 0.0 0.0 0.0 0.0 0.0
0.0 0.0 0.0 0.0 0.0 0.0 0.0 0.0
0.0 0.0 0.0 0.0 0.0 0.0 0.0 0.0
0.0 0.0 0.0 0.0 0.0 0.0 0.0 0.0
0.0 0.0 0.0 0.0 0.0 0.0 0.0 0.0
0.0 0.0 0.0 0.0 0.0 0.0 0.0 0.0
0.0 0.0 0.0 0.0 0.0 0.0 0.0 0.0
0.0 0.0 0.0 0.0 0.0 0.0 0.0 0.0

sequential_9/dense_9/MatMul f4 [1, 80]
00000000: 039a e93c 3e86 203e 05d5 0bbe e995 353e
00000010: ebdb 073e ee3f 313e 60d5 3bbc 72be 8f3e
00000020: 3915 893e 5d04 cd3d 4fd2 3f3e 2fd6 313d
00000030: 3c63 823e 0318 13bc fbb1 21be 4cd3 a53d
00000040: 4036 533c 85a0 4fbe b10d 303e 05b0 8d3e
00000050: 7956 a33d fad7 59be 0d14 353e 801f d4bd
00000060: f8bd 903e b8ed 863d bd46 723e 5324 54bd
00000070: cd3e 7dbe 5dae 693e fa64 2f3e e81f 9fbb
00000080: a0c7 7bbe c67a 2b3d f1f4 473e cfc8 69be
00000090: 1c6d 39be d495 433e 1d3c 29be aa60 ddbc
000000a0: b761 60bd 559d 81bd 54c4 a8bb e512 cabd
000000b0: 9ed9 c5bd b6d9 3e3e 66ac ddbd e2b5 7fbe
000000c0: 28db 2fbe a011 e93d 0b1a 16be c023 96bc
000000d0: 46f2 333c b912 943e b086 acbd e133 113e
000000e0: 0a8f 303d 4ceb 153e bc14 853d ceaa f13d
000000f0: 1365 253e 9a12 8e3d 1931 dbbd 2e3c 2a3e
00000100: d8e7 86bc 9640 163e 0aab 1ebe 4ae8 f9bd
00000110: 5476 4dbe ad3f 5c3e afb4 4e3d 20e1 873e
00000120: 7588 1cbd 2d61 eb3d 34f8 163e 194c 2bbd
00000130: b237 12be ff92 61be 283b 5a3e 542a 3abe
0.028515821 0.1567621 -0.13655479 0.17732967 0.13267486 0.17309543 -0.011464447 0.28074986
0.26774004 0.10010598 0.1873257 0.043417152 0.25466335 -0.008977893 -0.1579055 0.08096942
0.012891352 -0.20276077 0.17192723 0.27673355 0.07975478 -0.21273795 0.1768343 -0.10357571
0.28269935 0.0658831 0.23659797 -0.051792454 -0.24730988 0.2282042 0.17128363 -0.0048560984
-0.2458787 0.041865133 0.19527031 -0.22830509 -0.18108028 0.19100124 -0.16526838 -0.027023632
-0.054780688 -0.06328837 -0.0051503573 -0.09866885 -0.09660648 0.18637738 -0.10823898 -0.24971727
-0.17173445 0.11380315 -0.14658372 -0.018327594 0.010983055 0.28920534 -0.08424127 0.14179946
0.043105163 0.1464054 0.064980954 0.118001565 0.16151838 0.06937142 -0.10702724 0.16624519
-0.016467974 0.14673075 -0.15494934 -0.12202509 -0.2006467 0.21508665 0.050465282 0.26538944
-0.038216073 0.11493144 0.1474312 -0.04182062 -0.14279059 -0.22028731 0.21311629 -0.1818021

sequential_9/lstm_9/lstm_cell_9/BiasAdd/ReadVariableOp/resource1 f4 [320]
00000000: cba8 e53c b53e ee3c 4732 9cbb de70 ba3c
00000010: bda9 7c3c 433e 0b3d 0000 0000 4729 d53c
00000020: 88df 923c a0b0 0f3d a6ad c63c b7c1 b23c
00000030: 0000 0000 9f20 8bbc 0000 0000 e3fa e83c
00000040: 0000 0000 fa79 82bc 818d 123d b98b cd3c
00000050: ef64 c33c 0000 0000 d8c1 f03c e1d7 a5bc
00000060: f5e2 ce3c 1427 073d f1ea de3c ebed 21bc
00000070: 0000 0000 2f34 da3c 3525 d13c d81f dfbb
00000080: 386e 2cbc fe1f 033d e047 ae3c 42a2 3ebc
00000090: a427 11bc 8633 c83c 1075 18bc afcf 95bc
000000a0: 9336 a5bc 7cb1 74bc d6be aebc 7b19 94bc
000000b0: 782e 88bc 0000 0000 e618 26bc 0d2f 3cbc
000000c0: 0000 0000 0000 0000 4c32 52bc 0000 0000
000000d0: f33d fabb a4ea 003d 52c8 ccbc 81c8 003d
000000e0: cb11 003d 4afe c83c 0000 0000 a696 013d
000000f0: 6525 103d b190 fe3c af9b 83bc 0000 0000
00000100: 213d 9fbc 543a c73c 0000 0000 fe20 9ebc
00000110: daee b8bc 7598 d13c 0bb0 e53c 0000 0000
00000120: 65f3 33bc 9555 fd3c 0000 0000 ff24 9abc
00000130: 9167 17bc 0000 0000 df9f e53c 0000 0000
00000140: 0000 803f 0000 803f 0000 803f 0000 803f
00000150: 0000 803f 0000 803f 0000 803f 0000 803f
00000160: 0000 803f 0000 803f 0000 803f 0000 803f
00000170: 0000 803f 0000 803f 0000 803f 0000 803f
00000180: 0000 803f 0000 803f 0000 803f 0000 803f
00000190: 0000 803f 0000 803f 0000 803f 0000 803f
000001a0: 0000 803f 0000 803f 0000 803f 0000 803f
000001b0: 0000 803f 0000 803f 0000 803f 0000 803f
000001c0: 0000 803f 0000 803f 0000 803f 0000 803f
000001d0: 0000 803f 0000 803f 0000 803f 0000 803f
000001e0: 0000 803f 0000 803f 0000 803f 0000 803f
000001f0: 0000 803f 0000 803f 0000 803f 0000 803f
00000200: 0000 803f 0000 803f 0000 803f 0000 803f
00000210: 0000 803f 0000 803f 0000 803f 0000 803f
00000220: 0000 803f 0000 803f 0000 803f 0000 803f
00000230: 0000 803f 0000 803f 0000 803f 0000 803f
00000240: 0000 803f 0000 803f 0000 803f 0000 803f
00000250: 0000 803f 0000 803f 0000 803f 0000 803f
00000260: 0000 803f 0000 803f 0000 803f 0000 803f
00000270: 0000 803f 0000 803f 0000 803f 0000 803f
00000280: 946a 1b3d 26d5 ec3c 92e8 02bc 86d6 e83c
00000290: 2956 e23c bfcf 0b3d 0000 0000 943b ec3c
000002a0: 5a8d e83c b772 0b3d d3e6 f03c 552e 1f3d
000002b0: 0000 0000 9c41 8dbc 0000 0000 a906 043d
000002c0: 0000 0000 0ebf a1bc 0008 1c3d 1d63 eb3c
000002d0: 4baf 033d 0000 0000 8b06 053d ea6a a5bc
000002e0: 73e8 093d bc9c 0c3d 34fa f93c aec2 41bc
000002f0: 0000 0000 1278 f43c 2f34 053d a63d 58bc
00000300: f59f 64bc 70a8 213d e33f e53c fddc 6cbc
00000310: 538b 2bbc 945d de3c d361 39bc b208 cebc
00000320: 430f d6bc e08b 6dbc 51b1 ccbc a3cd a3bc
00000330: 163f a7bc 0000 0000 d667 48bc 22c6 69bc
00000340: 0000 0000 0000 0000 2a5a 82bc 0000 0000
00000350: 21a8 89bc dd99 103d 9977 0bbd 64a4 063d
00000360: 46f0 1d3d 28c4 f63c 0000 0000 3f36 1d3d
00000370: 7d35 1a3d 2b09 083d 7808 92bc 0000 0000
00000380: 4fb1 bfbc f4e4 f83c 0000 0000 0433 b6bc
00000390: 5d44 c2bc 7e9a fd3c 701b 133d 0000 0000
000003a0: 7a16 69bc d0b7 0e3d 0000 0000 ad44 cebc
000003b0: 88fa b4bb 0000 0000 df67 f83c 0000 0000
000003c0: a0a1 cd3c ba7c da3c 086a 99bb 7232 c43c
000003d0: d78c 683c 4767 073d 0000 0000 c7d8 e93c
000003e0: 827d 883c 0f71 073d ab5f ca3c 24a5 a83c
000003f0: 0000 0000 8fe6 8bbc 0000 0000 60aa f13c
0.028034588 0.029082635 -0.0047667357 0.022758897 0.015421328 0.033994924 0.0 0.02602066
0.017928854 0.035080552 0.024252724 0.021820886 0.0 -0.016983328 0.0 0.028439945
0.0 -0.015927304 0.03577948 0.025091039 0.02385184 0.0 0.029389307 -0.02024454
0.025254706 0.032996252 0.027211638 -0.009883384 0.0 0.026636211 0.025530437 -0.006809216
-0.010524325 0.032012932 0.021274507 -0.011635365 -0.008859549 0.02443863 -0.009305254 -0.018287508
-0.020167625 -0.014934894 -0.021331232 -0.018078556 -0.01662372 0.0 -0.010137772 -0.011485827
0.0 0.0 -0.0128293745 0.0 -0.0076367795 0.03147377 -0.024997864 0.031441215
0.03126697 0.024535317 0.0 0.03163781 0.035191912 0.031074854 -0.016065447 0.0
-0.019438328 0.024319805 0.0 -0.019302841 -0.02257483 0.025585392 0.028038045 0.0
-0.010983323 0.030924598 0.0 -0.01881647 -0.009241001 0.0 0.028030334 0.0
1.0 1.0 1.0 1.0 1.0 1.0 1.0 1.0
1.0 1.0 1.0 1.0 1.0 1.0 1.0 1.0
1.0 1.0 1.0 1.0 1.0 1.0 1.0 1.0
1.0 1.0 1.0 1.0 1.0 1.0 1.0 1.0
1.0 1.0 1.0 1.0 1.0 1.0 1.0 1.0
1.0 1.0 1.0 1.0 1.0 1.0 1.0 1.0
1.0 1.0 1.0 1.0 1.0 1.0 1.0 1.0
1.0 1.0 1.0 1.0 1.0 1.0 1.0 1.0
1.0 1.0 1.0 1.0 1.0 1.0 1.0 1.0
1.0 1.0 1.0 1.0 1.0 1.0 1.0 1.0
0.037943438 0.02891023 -0.007990019 0.028422605 0.027628975 0.03413367 0.0 0.028837003
0.028387714 0.034044947 0.02940694 0.038862545 0.0 -0.017243199 0.0 0.032232914
0.0 -0.019744422 0.038093567 0.028733784 0.032149594 0.0 0.032476943 -0.020192582
0.033668946 0.03432916 0.030514814 -0.0118262 0.0 0.02984241 0.03252047 -0.013198292
-0.013954152 0.039467275 0.027984565 -0.014456985 -0.010470229 0.02714423 -0.011314827 -0.02515063
-0.026130324 -0.014498681 -0.024986895 -0.019995516 -0.020415824 0.0 -0.012231788 -0.01426843
0.0 0.0 -0.015912134 0.0 -0.016803803 0.035302985 -0.034049604 0.03287162
0.03855922 0.030122831 0.0 0.03838181 0.037648667 0.03321187 -0.017826304 0.0
-0.023399977 0.03038261 0.0 -0.022241123 -0.023714239 0.030957457 0.03591484 0.0
-0.01422655 0.034843266 0.0 -0.025179232 -0.0055230297 0.0 0.030322967 0.0
0.025101483 0.026670802 -0.0046818294 0.023949835 0.014193735 0.033057477 0.0 0.02854575
0.01666141 0.033066805 0.024703821 0.020586558 0.0 -0.017077712 0.0 0.029500186

sequential_9/lstm_9/while/lstm_cell_9/MatMul_1 f4 [320, 80]
00000000: 2069 74bd 0aaa 03bd f999 ae3d aa14 53bd
00000010: 664e 293d dcaf e83c 46f8 10bd 4053 663b
00000020: df30 163c 44b9 f13c 6fe6 48bd b0aa 1bbd
00000030: 6a47 3bbc da65 d73c 0321 0c3d 029c 92bd
00000040: 7ab7 023d cf26 a93d bc6b c5bc 162f aebc
00000050: 9486 b8bd 0daa c93d 481f 20bc 6e88 9dbc
00000060: 1e18 5bbd 70ae a1bc 32aa d83b c5f6 1ebd
00000070: dca1 b83c aaf2 d0bc 002c 323d 9ce4 0f3d
00000080: 5ca6 af3d c317 eebc a51c 0ebd 5662 363d
00000090: 886a 14bd ec8f 853c 34e4 39bd 901e 63bd
000000a0: a038 9ebc d173 f33c 3137 56bd 907e d639
000000b0: 6bad 633c 8244 babd 1c53 9dbc 673d 14be
000000c0: a860 adbd daf2 bbbd 887c 9d3b ee8d b03d
000000d0: cc2c 9cbd 222f c13c 5061 80bd 62c3 513d
000000e0: f22f 903c 18ac 6dbd f3af 27bc 581e 333c
000000f0: 10e2 57bb 5043 c73d 1268 f3bc 18a4 c33c
00000100: 32ac 313c 27e4 9f3b 4741 213d a703 3b3c
00000110: 3a2d f83d 24c1 e53c b2b5 b0bd a501 2e3d
00000120: 42bf c13d 5b85 a93d d60d a1bc 3e12 1b3d
00000130: c0a8 98ba e887 2bbc 30fa 49ba bbcd abbd
00000140: baef e63d 002d 9b3d 3010 9e3c 6dd9 f0bd
00000150: b15d 8b3d 2870 44bd db37 8bbc 622b 98bd
00000160: 5e8d 82bc a464 ab3d 5c54 5e3c fb37 083d
00000170: 4b23 7abb 42ea 0d3d 2249 963c 08a1 e2bb
00000180: 649a a83b a42a afbc e696 193d 8a48 bfbb
00000190: 38ba 99bd 2800 4a3d f772 73bc 45d5 41bd
000001a0: 6d74 ffbd 9a70 76bd 9b35 05bd aef4 663d
000001b0: 6484 2c3d 2555 56bd 7f00 bdbc ed6f 24bd
000001c0: a703 443c 8117 ae3d 53ab e2bb ec20 9dba
000001d0: a40f 4b3d 7f0b 683c 74ec 863d ac46 013e
000001e0: d473 5dbc 406a ebbc 7408 be3c 1a79 49bd
000001f0: 0f95 0abd c65f 9a3c 58ba c4bc d1d3 893c
00000200: c44f e53c 6612 073e 90c3 69bd f013 fa3c
00000210: d850 7b3d 9f05 0d3d f96c 7e3d 59a8 25bd
00000220: 0a7e 3d3d b762 8fbd c132 1c3d a2ca bdbb
00000230: 7b4c f1bc c133 1e3d 54d9 cfbb e2df 9bbd
00000240: 8f15 b2bd d5ed c53d b56f c43c 8033 8d3d
00000250: 276c 15bd 3f53 34bd ec8f 523d 8013 febc
00000260: b5c7 373d d48c c0bc 6a15 1bbe 0b16 033d
00000270: 9e33 e23d d8c7 883d 935b 213d 3683 cb3d
00000280: 3ce0 7f3c d312 b2bb c0de f83c 4758 a43d
00000290: 68a3 82bb 4429 41bd 5c98 b93d d55c 8d3d
000002a0: 59d0 813c 82ce ab3d 96c2 bfbc 9b6d 26bd
000002b0: 25c9 ebbd fa1a 90bd 1652 a5bd b2a4 593d
000002c0: c82e 043d 8d50 abbd 0ff5 10bc 940c 473d
000002d0: f714 2fbd 6e0b 303d 7ef2 80bd c5e1 583d
000002e0: bd6c 56bd 90d0 c53c 79d9 d0bc 9b23 1b3e
000002f0: b322 3cbd 245c fe3c 7049 f1bc 78f7 b63c
00000300: b1d7 e8bd 260c 523d 2be7 2ebb 4fa7 8dbc
00000310: 4c11 9ebd c0ad b33c e54e 463d 4d69 a53d
00000320: 6677 c63c 5994 8cbd 7ac0 8e3d 165d e3bb
00000330: 7823 02bd 04c4 dbbd 75fd d6bc 25b4 cfbd
00000340: 2226 1cbd f71f 0bbe e7be 89bd a06e 1c3e
00000350: 1442 bc3d 1b95 d13c 5ee8 9f3d 8a2a 96bd
00000360: f3a6 c6bd e1c2 76bc eea8 05bc 44b9 e7bc
00000370: 95e4 81bd 6509 b0bd 779b ecbd f06e e23c
00000380: da53 95bc dad0 863c 87c4 83bc a5a1 aa3c
00000390: 455c 863d 602f 733c 20e2 e3b8 fdc0 183c
000003a0: 3969 f13b 39d9 dfbb a7bc 1d3d 3aa9 87bd
000003b0: 24aa 3fbd 6241 6cbd a30e a13d 19cb 643d
000003c0: 905e cfbc 3b78 6bbd 27a4 61bd 0075 783d
000003d0: 358a 293c 2e40 0e3c 119e 93bd 7a49 d53c
000003e0: 04f9 83bd 8688 04bd 758f 5d3c a1a1 143b
000003f0: 6112 0f3d 9881 97bc fe8c d23c 183a bebd
-0.059670568 -0.032144584 0.08525462 -0.05153338 0.041334532 0.028404169 -0.035393022 0.0035144836
0.009166925 0.029507287 -0.049047884 -0.038004577 -0.011430601 0.026293684 0.03421117 -0.071586624
0.031913258 0.08259355 -0.024099223 -0.021262687 -0.09010044 0.09846888 -0.009773083 -0.019230094
-0.053489797 -0.019736499 0.0066120857 -0.038809557 0.022538118 -0.025506336 0.043498993 0.03513013
0.085766524 -0.029064065 -0.034695286 0.044527374 -0.03623441 0.016303979 -0.045383647 -0.05544907
-0.01931411 0.029718312 -0.05229873 0.00040911557 0.013896327 -0.09095098 -0.019204669 -0.14476548
-0.08465701 -0.0917718 0.004806105 0.08620821 -0.07625732 0.023582045 -0.06268561 0.051211722
0.017600987 -0.05802545 -0.010234821 0.0109325275 -0.003294114 0.09729636 -0.02971271 0.023881957
0.010844277 0.004879493 0.039368894 0.011414445 0.12118001 0.028046198 -0.08628406 0.042482037
0.09460308 0.08277389 -0.019659918 0.037859194 -0.0011646971 -0.010469414 -0.00077048223 -0.08388849
0.11276193 0.075769424 0.019294828 -0.11760221 0.068049796 -0.047958523 -0.016994407 -0.074301496
-0.01593655 0.08368805 0.0135699175 0.033256512 -0.003816801 0.034647234 0.01834542 -0.006916169
0.005145358 -0.021382637 0.037497424 -0.0058375048 -0.075062215 0.049316555 -0.014858953 -0.04732253
-0.12473378 -0.06016598 -0.032521825 0.05638569 0.042118445 -0.052327294 -0.023071526 -0.040145803
0.011963761 0.08500577 -0.006917396 -0.0011987961 0.049575463 0.014162897 0.065880686 0.12624615
-0.013516385 -0.028737187 0.02319739 -0.049187757 -0.03383356 0.018844496 -0.024014637 0.016824635
0.027992137 0.13190612 -0.05707127 0.030527085 0.061356395 0.03442919 0.062115643 -0.040443752
0.04626278 -0.0700125 0.03813434 -0.005791978 -0.029455414 0.038623575 -0.006343046 -0.07611062
-0.08695518 0.096645035 0.023979047 0.068945885 -0.036480095 -0.044024702 0.051406786 -0.031015158
0.04486819 -0.023504652 -0.15144888 0.032003444 0.110450014 0.06678742 0.039393973 0.09937136
0.0156174265 -0.005434373 0.030379653 0.0802465 -0.0039867647 -0.047158495 0.09062263 0.06902472
0.015846418 0.083889976 -0.023408215 -0.04063187 -0.11512975 -0.07036395 -0.08072297 0.05313558
0.032271177 -0.08364973 -0.008847489 0.04859598 -0.042744603 0.04297965 -0.06296252 0.052949686
-0.052349795 0.024147302 -0.025494324 0.15150301 -0.04593153 0.031049795 -0.029453963 0.0223348
-0.11369265 0.051281117 -0.002668808 -0.017291693 -0.07718143 0.021933436 0.048415083 0.08076725
0.024226855 -0.068642326 0.06970306 -0.006938587 -0.031772107 -0.107307464 -0.026243905 -0.10141782
-0.038122304 -0.13586412 -0.06725865 0.15276575 0.09192291 0.025583794 0.078079924 -0.073323324
-0.09699812 -0.015061111 -0.008157952 -0.028286584 -0.06342427 -0.08595542 -0.1155309 0.02764079
-0.01822846 0.01645701 -0.016084922 0.020829031 0.06560568 0.014842838 -0.000108663226 0.009323356
0.00736728 -0.006831315 0.03850999 -0.06624074 -0.046793118 -0.05767954 0.0786412 0.05585775
-0.025313646 -0.057487708 -0.05508819 0.060658455 0.0103478925 0.008682294 -0.07207883 0.026036013
-0.0644398 -0.03235676 0.013522972 0.0022679346 0.034929637 -0.018494412 0.025701996 -0.09288424

sequential_9/lstm_9/while/lstm_cell_9/MatMul f4 [320, 14]
00000000: 9ea8 cd3d 7b4b 39bd 4c16 803d dacb 023e
00000010: 189f 2c3d f7cd 86bd e2ef 843d 43db 4cbd
00000020: 0993 92bd 8c65 e93b af6b b2bd 2a59 14bd
00000030: 0113 ee3d f981 953d 8b33 9a3d faf7 043e
00000040: 5a12 0a3e 1af8 a03d 3544 f53d e821 9e3b
00000050: 3626 233c 5290 f93d 6aef 753d a211 2a3d
00000060: e0e4 fd3d c1fe 76bc 58ed 44bd 0bd5 df3d
00000070: 4062 973b 39f9 f0bd 2565 e4bd cd1d 00be
00000080: 27ef 06be b699 6f3d e208 b83d 8403 a03c
00000090: 8bba 82bd 1fbf e73d d418 b23c 4789 7a3d
000000a0: f656 023e ea5c 673d 42fd cdbc fa93 60bd
000000b0: 480e d8bd 37c7 afbb 4148 a43d 36b7 363d
000000c0: 11de 323c 0cd1 bebc 5834 cdbc 05a9 e53d
000000d0: d6de f03d 6ff0 d7bc b022 4bbd 338e 093d
000000e0: 8bc9 afbd 4329 1bbd e3b0 fdbc 70fb 8f3d
000000f0: 0a59 43bc 03cd c8bd 8cdb cc3d 90a6 5f3d
00000100: 70bc a3bd d060 ec3a da24 0abd 100c a13d
00000110: c5b3 963c 837e 1b3d 557e 103d 8ea7 f83d
00000120: 57cd d6bd 9f9e 91bd 3d89 f13b 987e 99bd
00000130: db07 983d c88f 2a3d 816c 643d 9a50 8cbc
00000140: 376d 8f3d 7be2 4abd 8f5f cabb 8991 d8bb
00000150: a4f0 603d e58c abbd 9cc5 9dbd 7421 60bd
00000160: dc91 563d a481 e5bc f233 903d 26b3 cabd
00000170: fedc d63d c0ed 553c c22f ab3d a42a b0bd
00000180: 5842 ab3d 5067 553d 20d4 bcbd 51cc 133e
00000190: 45ec 4a3d 5839 27bd 9e7d 8dbd 41d5 923d
000001a0: 3242 913d d58e 0d3e 94d2 d53d 2ce9 133e
000001b0: dae5 c6bd 92fd 993d 3573 82bd 3976 803d
000001c0: fc16 aabd 0aa9 7bbd 73df ee3d 87f7 3a3d
000001d0: 36f1 4cbd fb08 e43c f19d a93d 2375 c7bd
000001e0: 2fc7 32bd b7f8 b23d 84c3 083e b5cb 83bd
000001f0: 1232 4bbd fbdf a63d 819c 1d3e beda 833d
00000200: e8f2 7fbd 869e 90bd 581e a03d 43cf 133e
00000210: 1ac4 c0bd 19b3 73bd 5696 ba39 c501 923d
00000220: 7504 bd3d 3001 5c3d 64ce 5c3d 5e2f 9cbd
00000230: 2683 313c 3b24 9e3c 724a ddbd 205c 59bd
00000240: d969 e33d b6c7 563c 9cf0 b93d d3a4 7abd
00000250: 3a8d 343d fb8e c8bb 0a3b 033e 627f a3bd
00000260: c14e 663d b84e bbbd 5fa4 1c3d 73c2 dc3d
00000270: 5756 2e3d f3fd ac3d 30da 703c 071b 1ebd
00000280: d0cf b23c 7464 f9bd a982 ce3d bf18 983d
00000290: f502 013e e68e edbd ea60 fc3d 2c34 c63d
000002a0: d4c0 c03d ab4d 88bd ca82 c23d ac3b c73d
000002b0: f08c 6ebc d467 843d ba16 e2bd 125d bb3d
000002c0: 1c39 2e3d 3853 27bd 2c00 c33d 6205 6abd
000002d0: d081 2fbd 2062 a93d bac9 d7bd 07ae 993d
000002e0: c73c eabd b867 f13d 2606 c2bd 5516 06bb
000002f0: 6863 fcbd c709 a33b 71b0 a03d 096a 0bbe
00000300: 9e30 9f3d 9303 b13d e6f3 693d 6c17 063d
00000310: 0451 75bd 30f5 a83c b0e8 cd3d 14c6 9d3d
00000320: 30dc f83c 78e8 acbd b076 0cbc 401e 043b
00000330: ed43 f1bd 8c51 403d 0cf4 c5bc 72e3 f13d
00000340: b18e d2bd 409c e53c 938c 0c3d e535 6bbd
00000350: 8512 c13d 906c c13d 2c27 97bc ac38 043e
00000360: c53f ebbc 1592 d4bc 716c 953c 0271 87bd
00000370: bb9e 3fbd 0d93 0d3d 2f7f 063e de07 a4bd
00000380: a034 983c 94e5 5f3d 7097 e03c 223f a8bd
00000390: b0a7 183c 5616 9a3d d441 193d cacf f03d
000003a0: b8fb d13c a283 abbd a0b4 793d 34e8 b1bd
000003b0: 7894 fbbd 900a 913d 45c9 d6bd 395a 03be
000003c0: 373f 0abe 4f68 d43d 20cc ad3d 739e 08be
000003d0: 558d c2bb 1e93 6abc e48e 75bd 685c 04be
000003e0: 9003 cbbd 1048 90bd e88c 17bd a276 e73d
000003f0: 18fe cd3d 8769 e4bb 01e0 acbc 7831 c2bd
0.10041927 -0.045238 0.06254253 0.12773076 0.04214391 -0.065822534 0.064910665 -0.05001379
-0.07156951 0.007122701 -0.08711945 -0.036217846 0.116247185 0.07300181 0.07529362 0.1298522
0.13483563 0.078598216 0.119759 0.0048258193 0.009957841 0.1218573 0.060042776 0.041520722
0.1239717 -0.0150753865 -0.04807791 0.109293066 0.0046198666 -0.117662854 -0.11152104 -0.12511368
-0.13177167 0.0584962 0.08986069 0.019532926 -0.063832365 0.1131575 0.021740355 0.061166074
0.12728485 0.056485094 -0.025145177 -0.05482862 -0.10549599 -0.0053643244 0.08021594 0.044608317
0.010917203 -0.02329304 -0.025049374 0.112138785 0.117612526 -0.026359765 -0.049593627 0.033582877
-0.08583363 -0.037881147 -0.030968135 0.0703038 -0.011923084 -0.09804728 0.10002813 0.054602206
-0.07994926 0.0018034223 -0.03372655 0.07863629 0.018396268 0.037962448 0.03527673 0.121413335
-0.10488384 -0.07110333 0.0073710964 -0.07494849 0.07423373 0.041641027 0.05576754 -0.017128278
0.07003253 -0.049532395 -0.0061759423 -0.006609146 0.054916993 -0.08376483 -0.077037066 -0.054719403
0.052385196 -0.028015919 0.07041158 -0.09897451 0.1049137 0.013057172 0.083587185 -0.08601883
0.083622634 0.05210048 -0.09220147 0.1443341 0.04954173 -0.04082617 -0.06908725 0.07169581
0.07092704 0.13824017 0.10440555 0.14444417 -0.097118095 0.07519068 -0.0636963 0.06272549
-0.08305165 -0.061440505 0.11663713 0.045646217 -0.050034724 0.027836313 0.08282078 -0.09739139
-0.043646988 0.08738845 0.13355833 -0.064353384 -0.049608298 0.0814819 0.15391733 0.06438206
-0.062487513 -0.07061486 0.078182876 0.14434533 -0.094124034 -0.059496973 0.00035588694 0.07129244
0.09229366 0.05371207 0.053907767 -0.07626222 0.010834491 0.019304385 -0.10805215 -0.053066373
0.11104173 0.013109138 0.09079096 -0.061192345 0.044079997 -0.00612056 0.1281549 -0.07983281
0.05622745 -0.09145874 0.038242694 0.10779276 0.04256281 0.084468745 0.014700457 -0.038599994
0.021827608 -0.12177363 0.10083515 0.07426595 0.12598784 -0.11599521 0.123231724 0.0967792
0.09411779 -0.06655439 0.09497602 0.097281784 -0.014559969 0.06465116 -0.11039491 0.09148611
0.042534932 -0.040850848 0.09521517 -0.05713404 -0.04284841 0.08270669 -0.10536523 0.07503896
-0.114373736 0.11787361 -0.09473829 -0.0020460088 -0.12323648 0.004975531 0.078461535 -0.13614668
0.07772945 0.0864326 0.057117365 0.03273718 -0.059891716 0.020624727 0.10054147 0.07703796
0.030378431 -0.084427774 -0.008573219 0.0020159632 -0.11780534 0.04695277 -0.024164222 0.1181096
-0.102811225 0.028028607 0.03431375 -0.057424445 0.094273604 0.09444535 -0.018451296 0.12912244
-0.028716931 -0.025948564 0.018240185 -0.066133514 -0.046782237 0.034564067 0.13134454 -0.08009313
0.018579781 0.054662302 0.027415961 -0.08215167 0.009317324 0.075237915 0.037416294 0.117583826
0.025632724 -0.08374716 0.060963273 -0.08686867 -0.122841775 0.07082093 -0.10487608 -0.12827386
-0.13500677 0.10371458 0.084861994 -0.13341694 -0.0059372582 -0.014317302 -0.059950724 -0.12925875
-0.09912789 -0.07044995 -0.036999613 0.11301924 0.1005823 -0.0069705877 -0.021102907 -0.09482092
