model.tflite (tflite, 123984 bytes, 13 tensors)

std.constant3 f4 [80, 80]
00000000: 80e9 1c3d 1265 a0bc 9c05 763c 9cf9 703c
00000010: 4fbe 8cbd e959 493b 6c0b c03c 40b6 1e3d
00000020: 8fe3 833c fb0b a13d b8ec 66bc 9842 e13c
00000030: 20f7 e6bc f0d5 fd3b 168b 6cbc 3886 ea3b
00000040: 74f6 d9bd ebde 293c 4077 ceba 800e dfbb
00000050: d479 2f3d 47ee 363c 814f 2a3d 2e70 d6bc
00000060: d162 533d f04a 493c 9cd6 cdbc eefb e73d
00000070: de1b 16bd 4145 473d 00be fb3a ccfc 86bd
00000080: 4009 8dba 9cd0 17be edac 18bd dce2 64bc
00000090: 7446 67bd 9704 983d 5628 21bd c7d3 b9bc
000000a0: 3d34 c23d b23b ee3d da88 103d fd72 6b3d
000000b0: ea32 19bc 281e 943d 6890 8e3d fbdd 853d
000000c0: d07a bf3c b825 2a3d 92c2 b13c f3fa 9f3d
000000d0: 0091 4c3c f060 823c cc7f 783d 78ea 02bb
000000e0: 4d3a d7bd f8ab 4f3d c376 333d 6eb3 8bbc
000000f0: db6d 30bd 686f 4fbd 04a5 bc3d a631 2dbc
00000100: 03cc 013d 047d 5fbd 94ae 943c 9d91 1fbe
00000110: 7552 9e3c 5c7f 1abd afce 123c 9a79 2d3d
00000120: 8599 3ebd 3490 0b3c 11d7 7d3d c01d a43a
00000130: 4590 bd3d 708a c5bd 88d8 8bbc 04f4 f1ba
00000140: d5c1 36bd 009c b0ba 906e 883c 332e 413a
00000150: a78f 00bd 9505 f23d be39 093d 07e7 1f3b
00000160: 255f 76bd 3b09 b53d 8683 cf3a fd20 333d
00000170: 26bc 4c3c 64d1 743d c079 393b d969 fd3c
00000180: 168d 263d 772f 15bc 233c 40bd 53dd 083c
00000190: 28d8 64bc ba0b 03bd 039d f33c 14f5 0b3d
000001a0: 89e5 523d 162c 4bbc 6fdc ca3d b74b 17bd
000001b0: 0459 34bd d31b 29bd a28d e1bd 9f08 b4bc
000001c0: 20af 8b3d c4ea 48bb 3504 3e3d 9583 6dbd
000001d0: 24a3 d43d 5fc1 cf3d 6e33 e5ba 3cf6 7bbd
000001e0: d73a 39bd dd88 cb3d f375 9c3d 8e3e 0fbd
000001f0: 030a 6dbd 4d28 8b3d f78e edbc bdf6 b9bd
00000200: d3a4 c13d 8b4e d3bd e0b7 73bb 1cb0 d73c
00000210: 2d78 89bd ac8d dfbb 8ce9 e3bc 5919 003d
00000220: 41b7 67bd 6e12 b63c 8920 36bd 7c68 1b3d
00000230: 8cdb e13c 981e d43c 5edd babd 350a 813d
00000240: 86fd 38bd 75ab 043d 7c72 aa3c 14e3 a2bd
00000250: efc3 8b3b d503 063d fd67 543c edff 813d
00000260: 098b 0bbe 95d7 ae3d 487e 2abd 6ba2 ce3d
00000270: 838d 47bd ef49 373e d1ea 4d3d a89c 63bd
00000280: 5b96 3abc cdff acbc 00dd d8bc af20 a63d
00000290: 8922 523d f0ae aebd 0770 85bd fa30 993c
000002a0: b3d2 e0bd 3e0b b03d 2c14 2f3d ecf9 823d
000002b0: 1628 6bbd 88ea 55bd 53fa fd3c 8d4e d5bc
000002c0: 2b73 99bd 7fdc 1bbd 4bd1 2a3d 95fb c2bc
000002d0: e573 bebc 56ff e03d bfd1 36bc d0c2 a2bc
000002e0: 5023 59bd 2f52 a93d 6af9 6bbd f048 503d
000002f0: e3ea 303d b204 7abc e247 8cbc 3470 283d
00000300: 9fed 2e3d bad4 a93c 0259 da3b e846 12bd
00000310: 0a6a 05be 4800 9a3d 5b3e a7bd 930c 403d
00000320: ed0c 743d fcd1 9b3d db5c 6d3d dcd3 8c3c
00000330: 92c8 1fbb cf13 03be dc53 333d 68d7 81bc
00000340: 5cc4 0b3e 015e e43c c70c 76bc 4fb4 a53d
00000350: ae25 cebd 9631 b13c 144c d43c e37e a03c
00000360: 91e2 4dbd f013 8a3d fa2a f23b d6c7 6bbd
00000370: d6bf a7bd 81f5 e6bd 4ec0 fdbc 5d0e 4f3d
00000380: 318e dc3b 8440 58bd 6c7f 0939 234e 673d
00000390: b3d4 8bbd c7d7 c8bc 2905 cabc afae 4bbc
000003a0: 00e2 06bc 207a 7a3c 5ba8 e73c 2a69 0b3e
000003b0: 59c3 d4bc ec59 58bd 01c1 3fbb b229 fbbb
000003c0: 247d 1bbd 817d 5bbd c6a7 9c3b 4041 cd3c
000003d0: aef6 9e3d 2198 aabc 2664 0fbd 6497 3e3e
000003e0: 8bbf 103d f452 c7bc f471 993c c78d 12bd
000003f0: 5be9 083d 6738 1cbb 08a8 403d 6ec9 593d
0.03830862 -0.019579444 0.015015986 0.014707949 -0.06872236 0.0030723757 0.023442946 0.038748026
0.01609972 0.07863613 -0.014094524 0.027497575 -0.02819401 0.0077464506 -0.014437458 0.0071571134
-0.1064271 0.010368089 -0.0015752092 -0.0068071485 0.042840794 0.011165208 0.041579727 -0.026176538
0.05160791 0.012285933 -0.025126748 0.11327349 -0.03664767 0.04865003 0.0019206405 -0.06591186
-0.0010760203 -0.14825672 -0.03727429 -0.013970103 -0.056463674 0.074227504 -0.039345108 -0.022683991
0.0948262 0.1163248 0.03528676 0.05748271 -0.009350518 0.07232314 0.06961137 0.0653648
0.023373991 0.041539878 0.021699224 0.07811537 0.012485743 0.015915364 0.06066875 -0.001997618
-0.10509167 0.05070111 0.043814432 -0.017053332 -0.043073516 -0.050643355 0.09211162 -0.010570919
0.0316887 -0.054562584 0.018149652 -0.15582891 0.019326428 -0.037719116 0.00896041 0.042352296
-0.046533126 0.008518267 0.06197268 0.0012521073 0.09256033 -0.096455455 -0.017071024 -0.0018459563
-0.044618446 -0.0013474226 0.016654283 0.000736925 -0.031386998 0.11817471 0.033502333 0.0024399178
-0.06014933 0.08839651 0.0015832044 0.043732632 0.01249603 0.059770003 0.0028301328 0.030934261
0.040661894 -0.009105555 -0.04693235 0.008353549 -0.013967551 -0.031993605 0.029737955 0.03416927
0.051488433 -0.012400648 0.099053256 -0.03693744 -0.044030204 -0.0412863 -0.110133424 -0.021976767
0.06820512 -0.003065751 0.04639073 -0.057986815 0.10382679 0.101443045 -0.0017486641 -0.061514124
-0.04522213 0.09938214 0.076396845 -0.034971766 -0.057870876 0.06794796 -0.028998835 -0.09080265
0.09455266 -0.10317715 -0.0037188455 0.026329093 -0.06712375 -0.0068223085 -0.027821325 0.031274173
-0.05657125 0.022225585 -0.04446462 0.03794144 0.027570508 0.025893494 -0.09124254 0.06300775
-0.045163654 0.032390077 0.020806544 -0.07953468 0.0042653005 0.0327185 0.012964246 0.06347642
-0.13627256 0.08537213 -0.041624337 0.100895725 -0.04871894 0.17899297 0.050272767 -0.05556932
-0.011388387 -0.021118069 -0.026472569 0.08111703 0.051302467 -0.085294604 -0.06515508 0.018700112
-0.10977688 0.08595894 0.042743847 0.06395325 -0.057411276 -0.05222562 0.031003153 -0.026038432
-0.0749267 -0.03805208 0.041703504 -0.023801604 -0.023248622 0.109862015 -0.011158406 -0.019868284
-0.053012192 0.082676284 -0.057610907 0.05085081 0.043192755 -0.0152599085 -0.01712412 0.04112263
0.042707082 0.020731319 0.0066634426 -0.035712153 -0.13028732 0.07519585 -0.0816619 0.04688699
0.05958264 0.07608411 0.057949882 0.017190866 -0.0024381024 -0.12800525 0.043781146 -0.015849784
0.13649124 0.027876856 -0.015017695 0.08091032 -0.100657806 0.02163009 0.025915183 0.019591754
-0.0502649 0.06742084 0.007390377 -0.057563625 -0.08190887 -0.11277295 -0.030975487 0.050550807
0.0067308177 -0.052795902 0.00013112806 0.056471 -0.068276785 -0.024516953 -0.024660664 -0.0124317845
-0.008232594 0.015287906 0.02827852 0.13614336 -0.025972055 -0.05282013 -0.0029259326 -0.0076648826
-0.03796114 -0.053586487 0.0047807423 0.025055528 0.07761894 -0.020824494 -0.03500762 0.18612438
0.03533892 -0.024331547 0.018731095 -0.03577974 0.03342567 -0.002383733 0.047035247 0.053170614

std.constant4 f4 [80, 80]
00000000: c32b 0bbd ec2a 63b9 33dd 733d 44c0 b83d
00000010: 8ebd bdbd 1732 683d 3e6e e8bd e1ca 783c
00000020: 1996 a5bc a005 57bc 2eac 92bb 7c46 6bbd
00000030: a49a f23c 4459 be3d f062 63bd 5716 c03c
00000040: 18f8 0a3d 50d0 3a3d 00d3 aa3d 8ff5 d23d
00000050: 6105 dc3c 04a3 cf3d 9e99 633c f24b 163d
00000060: d25d e3bd 8463 16bd e01f 5b3c 5ca9 643d
00000070: 7959 fbbc 3ffc 20be 0379 523c bf43 073d
00000080: 0c89 003c 483c 073d 0b86 97bd 21f1 ad3d
00000090: 3833 563b 8025 a8bd f003 773d 7a47 8f3d
000000a0: 1994 3f3d dcb1 f53c 302d c13b 0e5f 843d
000000b0: 3ee8 eebc 4c1c f03c 3384 c73b ee86 d53c
000000c0: 9ece 9bbd 2370 7c3d 4c11 1abd 5b63 ad3c
000000d0: 6d17 9bbd 90fc 95bd 057d bcbd 4107 e8bb
000000e0: fdcc cfbd 799e 693d d38d d5bd 709a 48bd
000000f0: 8c06 23bd a04c 4ebd 88ea af3c 1622 0ebd
00000100: 6c48 bebc e048 043e 8c39 d1bc 26e4 db3c
00000110: bc15 c73b 96a9 8ebd ce9d abbc c6c5 ccbc
00000120: 7b77 40bc 0327 1fbd 65a9 7ebd a4f0 0ebd
00000130: b083 463c 4a05 c53d 17f2 3e3d 7fa7 48bd
00000140: 8947 12bd 5093 3abd 2fbb 573c 5a9c 973a
00000150: cc82 86bd 1be5 bc3d de21 d93c d02e a23d
00000160: d861 003d 8684 e83d a2f4 93bd 6bee 50bd
00000170: 775d d33d b0a3 9f3d e9cb 1bbd 7a17 d2bc
00000180: 1826 49bc 6a3d a3bc 11d8 76bd c040 3f3c
00000190: fe3e cbbc f8f7 5ebd 7184 4ebc 000d 5cba
000001a0: fec2 b5bc 2e21 ce3c b891 793d 52d9 a23c
000001b0: a2ca 3ebd 9983 8d3d 3668 0bbe e3d0 ecbd
000001c0: 0e55 e23b ba15 32bd 2e18 f53c 0ef4 1bbd
000001d0: 680b 483c 7e20 123d c69b 93bc 89d3 b13d
000001e0: 671c c9bc 5096 ab3c bc98 bc3b eafc ac3d
000001f0: de05 863c 2454 32bc 9611 d0bb 24b4 7e3c
00000200: 97bd 913d 129b b63c 26da e4bc 8a4a 8d3c
00000210: d963 bc3d 8a26 43bd c05f 9c3d fa00 d73b
00000220: 13b2 103d 0951 523c 77a1 8d3d 11cd 9c3c
00000230: d822 5cbd 0ebe 18bd 6c45 10be da78 69bc
00000240: 6044 d6bc dd99 343d 7ae6 febc bde5 ff3d
00000250: 406a 6239 ec33 2bbd 9cc9 a33d b40c 2bbd
00000260: 9c7f 943d c03a 9c3c 61d6 4cbd a1e0 69bd
00000270: 0c0e 16bd cea0 66bd f394 81bd 9ca0 cdbc
00000280: e11c 393d 6abb 433d 2795 a43d 0000 89b9
00000290: 7eb9 303c 84da b3bb a88c 9dbd 771a db3c
000002a0: efce 813d dda3 fb3c f4d0 d03d c56c a5bc
000002b0: f35f b3bc 2ce1 3ebd c236 95bd ee85 21be
000002c0: 3a3f 363c d911 30bd 8bf5 a63d 9842 e2bb
000002d0: ec47 683d dcff 70bd c69c 56bd 30d9 203d
000002e0: aa02 66bd c28e a4bc 0a3c fa3b 9223 90bd
000002f0: 25a3 bd3c b017 abbc 22ff 61bd 1ab5 7b3d
00000300: 997c d43c 543c 9d3d 9d24 b83c 100a 8f3d
00000310: 968d 863d 84c0 f03c 05c8 e93c 1c91 9dbd
00000320: 86e0 4d3d a4c4 51bd b0ce ba3c 3b65 df3d
00000330: 10d7 7fbd 01bb 4ebd 8433 413d 2ae7 14bd
00000340: 630e 8c3d 6540 95bc d4ee fe3c 70d4 1c3d
00000350: bbdb c33d 0058 f83a 6f8b 863d 3371 a63d
00000360: e625 fa3c 1fca 3dbd 89c6 c8bc fcce 373d
00000370: e307 98bd 5866 eabb b7d5 0f3d 9fdb 203d
00000380: 9c9f 113c c0de c0ba 01c3 a73c 6872 353d
00000390: 87bc febc fa16 d43c 2042 013b 20ee 673b
000003a0: b8fd e63a 39f6 933d 9d11 28bd 5669 40bc
000003b0: 2631 243d 0fe6 f63c 0d4c ea3c ae63 d53d
000003c0: 5db3 283d 17c4 7f3d 7aa7 26bd e996 f3bc
000003d0: a333 8cbd 0d7a ed3c aebe 0d3d 1e40 85bc
000003e0: fceb 28bd 024a 2f3d 7798 12bd 97fb 89bd
000003f0: 3dbd 643d f28f e3bb bbec 55bd fba2 77bd
-0.03397728 -0.00021664397 0.059537124 0.09021047 -0.0926467 0.056688394 -0.11349152 0.015185089
-0.020213174 -0.0131239 -0.004476092 -0.057440266 0.029614754 0.0929437 -0.055514276 0.023448152
0.033928007 0.04560882 0.08341026 0.10300743 0.026858034 0.10138515 0.013891606 0.03669352
-0.11101879 -0.036716 0.013374299 0.055825576 -0.030682312 -0.15721224 0.012846234 0.033023592
0.0078451745 0.033016473 -0.073986135 0.08493257 0.0032684337 -0.082102776 0.06030649 0.06996055
0.046772096 0.029992037 0.0058952793 0.06463443 -0.029163476 0.029310368 0.0060887574 0.026065316
-0.076077685 0.06163038 -0.03761415 0.02116554 -0.075728275 -0.07323563 -0.09203533 -0.007080943
-0.1014652 0.057035897 -0.104274414 -0.048975408 -0.039801165 -0.050366044 0.021474138 -0.034700476
-0.023227893 0.12918425 -0.025540136 0.026842188 0.006075589 -0.0696594 -0.02094927 -0.02499665
-0.011747236 -0.038855564 -0.062173266 -0.03489746 0.012116358 0.096201494 0.046617594 -0.04898786
-0.035712752 -0.045550644 0.013167187 0.0011566982 -0.06567916 0.09223386 0.026505407 0.07919085
0.03134331 0.11353402 -0.072243944 -0.051008623 0.103205614 0.07794893 -0.03803626 -0.02564596
-0.012277149 -0.019926745 -0.06026465 0.011673152 -0.02481031 -0.0544357 -0.012604819 -0.0008394271
-0.022187706 0.025162306 0.060929984 0.019879017 -0.046579964 0.06909866 -0.13613972 -0.115632795
0.006907112 -0.04347775 0.029918756 -0.038074546 0.012209751 0.03567552 -0.018018615 0.08682925
-0.024549676 0.020945698 0.005755512 0.08446677 0.01636022 -0.0108843185 -0.0063497527 0.015545879
0.071162395 0.02229074 -0.027936053 0.017247457 0.09198732 -0.047644176 0.0763545 0.0065613957
0.035326075 0.012836703 0.069155626 0.019140752 -0.053744167 -0.037290625 -0.14088982 -0.014250005
-0.02615565 0.044092048 -0.03111576 0.12494991 0.00021592621 -0.041797563 0.07997438 -0.04176016
0.07250902 0.019070983 -0.050009135 -0.05709899 -0.03663449 -0.0563057 -0.06327238 -0.025100999
0.045193557 0.047786154 0.08036261 -0.00026130676 0.010786412 -0.0054886956 -0.07692844 0.026746018
0.063382976 0.030717785 0.10196105 -0.020193467 -0.021896338 -0.04660146 -0.07285835 -0.15773746
0.011123473 -0.04298577 0.08152302 -0.0069049112 0.056709215 -0.058837757 -0.052395605 0.039269626
-0.056154884 -0.020087603 0.0076365517 -0.070380345 0.023149082 -0.020885319 -0.055174954 0.06145201
0.025938319 0.07677522 0.022478396 0.06984341 0.06569974 0.029388674 0.02853776 -0.07693693
0.05026295 -0.05121292 0.022803634 0.1090798 -0.06246096 -0.05047131 0.04716827 -0.036353268
0.068386815 -0.018219182 0.031119741 0.038288534 0.09563395 0.0018947124 0.065695636 0.0812706
0.03053565 -0.046335336 -0.024508731 0.04487513 -0.07423379 -0.0071533136 0.035115924 0.039271947
0.0088881515 -0.0014714822 0.020478727 0.04429856 -0.031095756 0.025889862 0.0019723251 0.0035389736
0.0017623222 0.072246976 -0.041032422 -0.011743864 0.040085934 0.030138997 0.028600717 0.10419403
0.04118668 0.062442865 -0.04068706 -0.029735046 -0.068457864 0.028988862 0.034605674 -0.016265925
-0.041240677 0.04279519 -0.035789933 -0.0673744 0.055844534 -0.00694465 -0.052227717 -0.060458165

std.constant5 f4 [80, 80]
00000000: 59d0 8fbd 3ea4 a1bd 5a53 b7bc 6138 47bc
00000010: 4fcc 953d 368d 2b3d 3c25 cc3d 1783 89bc
00000020: 50d9 4f3c dcae 82bd 5cc5 93bc 3d87 9abd
00000030: 72a6 5fbd fc1b b1bd b398 a53d ac27 2b3d
00000040: e2a7 613d ba4a cbbd 2ba4 823c 8a45 553d
00000050: 6444 353d f033 bd3c 5832 2abd a455 503b
00000060: 8241 34bd c468 74bd 442c a4bd 9038 183e
00000070: ba4c 573d e23e b3bd 0486 cc3b 9c54 afbc
00000080: 7246 193b ab43 b5bd fcc3 65bc f32c 85bd
00000090: 4cd0 1bbd ee20 bf3c 3d0a eb3c fefc 8fbc
000000a0: 7e8f 22bd 661d c6bd 66e6 e7bc 8b76 a6bd
000000b0: 62a3 503d 2251 693d 3075 2ebb b294 ef3c
000000c0: 7350 ed3c 90f7 843d da80 ac3c 8fc6 adbc
000000d0: aebb 6ebc 93d0 8c3d f58a 3e3d 4cbb 6dbd
000000e0: 6614 cc3c 9992 a53d 22df bebb 3714 db3c
000000f0: 70ed eebb a003 4bbc b3b3 4abd 8c9b 4cbb
00000100: f787 c2bd 4f0b 803d d6d6 ef3c c4c3 d1bc
00000110: d4b2 12bd 07d0 663c 1531 ff3d ae6b a0bd
00000120: 3f5f 5b3c 718e 5ebc a575 263d 4b07 533b
00000130: a858 653c 9940 53bd 830a c7bd 084b ea3b
00000140: 969a b03c c4cc 8a3d 59c7 d1bc 0a30 dfbc
00000150: e97a 71bd 1606 8cbd 3866 373d 687f 35bd
00000160: d06d 723c 948d 0f3e 2cdc bc3d 40c7 b5bb
00000170: 73ff c9bd b2db 0abd e335 ad3c be93 db3b
00000180: 0dc8 cf3d 1bc8 08be 1402 f8bb 3993 403d
00000190: 0c8b 29bd 52ba 983d 9845 8b3c 8a59 bebc
000001a0: 2cb4 e53c b03a ca3c 5e65 a93c 8215 acbb
000001b0: 6afe eabc 6835 5ebd b83b 7c3c b53c 0c3d
000001c0: 21e0 84bc bc41 d63c 1e21 a9bc ac26 ea3d
000001d0: 6131 903d 91d1 d3bc 40ba daba e410 dcbc
000001e0: 3db1 5abb 079c 40bd 98ec 6dbd 1cb7 81bd
000001f0: 41ce ecbc 2ee6 4bbd 49c7 4dbd e0f6 43bd
00000200: 78fd d53d 96a2 ab3c f1a3 4bbd 50f1 d63b
00000210: 0420 123d 900b ac3c 86b2 7f3d c05d ca3b
00000220: b861 1c3d 6e99 81bc fa02 51bd 587d cb3d
00000230: 288c 1dbd 3ba2 533d 8f4e 89bd beb2 63bd
00000240: dc7a cc3d ad80 8abc b44f 49bd 973c 223d
00000250: 26a5 f9bd 4709 52bc c4a1 b4bc 1812 193c
00000260: 72d7 803d ec6a 4cbd d634 9bbd d247 65bc
00000270: 7b10 45bd 28ca 29bd 50b1 aabd fe7e b03c
00000280: 003e 2b3d 5420 b6bd 771e f1bd 21ee f4bc
00000290: 16ea 54bd 3e6f 603d afa0 0a3d f392 6abc
000002a0: 24a0 05bd a7bf 013e 8027 1c3d 61d6 8c3c
000002b0: 8c80 113b 2c07 883d 198a 943c 1b9d 103c
000002c0: dcd1 973c 8598 b8bc 3880 2d3d f2ce e6bc
000002d0: 15da 0dbd 35f4 113e 50ac 7abb 811d 53bd
000002e0: a5f1 b1bd 68af 1f3d 3ecb 6c3c 5520 053c
000002f0: cc52 a73c 9431 343c 57f5 97bc 54ba e73c
00000300: 0c57 e13b 213d 78bd 6754 823d cebe 51bc
00000310: db1a 923b 0831 e03c 80b1 f739 9740 a93d
00000320: e698 5abd 40cb 2cbd fa8a 96bd 4810 3abc
00000330: e2bb 143c ba46 19bc 56f2 f93c 2f68 19bd
00000340: c9b7 6abd f749 9abc 6f2f d23d bc0c c8bd
00000350: 3bdd 8a3d 4137 9fbd c15e 9c3d 1ef3 4b3d
00000360: 3198 ff3c ee86 243d e2cc f73c 6097 703c
00000370: d32a 983c ecb7 1cbe 97f2 9bbd 6666 adbc
00000380: 2649 7e3b 1150 71bd 9c91 ea3c 30e6 c7bc
00000390: 03ef 843d 2c4b b9bb 22f3 9fbd 64a8 9e3d
000003a0: 3e98 22bd 7b1b ba3d c94f 56bd c846 60bd
000003b0: fddd 98bd 86b3 023e 5b55 68bd b9ad 0ebd
000003c0: 343b e33d f2ad 783c 76fb 27bd 9ed2 693d
000003d0: 501c 173d b4b5 e5bd b0ae 0dba 0ef0 1f3d
000003e0: 1e50 3c3d 1571 2a3d 8219 ba3d d75b aa3d
000003f0: 9515 b73c 376f 9b3c 856c 4f3d 1910 363c
-0.07022161 -0.07892655 -0.022378612 -0.012159438 0.073143594 0.041882716 0.099680394 -0.016786141
0.012686089 -0.06381008 -0.018038444 -0.07545326 -0.054602094 -0.08647916 0.08085766 0.04178588
0.055091746 -0.09926362 0.015947422 0.05206827 0.044254676 0.023096055 -0.041551918 0.0031789327
-0.044007786 -0.059670225 -0.080162555 0.14865327 0.052563407 -0.08752228 0.006241562 -0.02140265
0.0023387936 -0.08850797 -0.014023777 -0.06502714 -0.038040444 0.023331132 0.028691405 -0.01757669
-0.039687626 -0.09673576 -0.028308105 -0.08128079 0.050937064 0.05696214 -0.0026620142 0.029245708
0.028969025 0.06492531 0.021057535 -0.021212844 -0.0145711135 0.0687572 0.04651924 -0.05803995
0.02491207 0.08084602 -0.0058249393 0.026743038 -0.0072914883 -0.012391001 -0.04948778 -0.0031220643
-0.094985895 0.06252157 0.029277246 -0.025606044 -0.035815075 0.0140876835 0.124605335 -0.07833038
0.013389408 -0.013583765 0.04063954 0.0032200392 0.013998188 -0.051575277 -0.09718802 0.0071500577
0.021558087 0.06777337 -0.025607752 -0.027244586 -0.058955107 -0.06837098 0.044775218 -0.044310957
0.014796689 0.14018852 0.09221682 -0.005547434 -0.09863176 -0.033900924 0.02114386 0.006700962
0.101455785 -0.13357584 -0.007568607 0.047015402 -0.04139237 0.07457413 0.017000958 -0.023236055
0.028040014 0.024686188 0.020678218 -0.0052515874 -0.028685767 -0.05425015 0.015395097 0.034237582
-0.016220154 0.026154391 -0.020645674 0.11433157 0.07040668 -0.025856765 -0.0016687587 -0.026863523
-0.0033369802 -0.0470238 -0.05808696 -0.063337535 -0.028906943 -0.049780063 -0.05023888 -0.04784286
0.10448736 0.02095155 -0.049716894 0.0065595284 0.035675064 0.021001607 0.062426113 0.0061757267
0.03817913 -0.015820231 -0.05102823 0.09936017 -0.03846374 0.051668387 -0.06704437 -0.055590384
0.09984371 -0.01690706 -0.049148276 0.039608564 -0.12189703 -0.012819595 -0.022049792 0.009342693
0.06291093 -0.049906656 -0.07578437 -0.013994174 -0.04811142 -0.041452557 -0.08334601 0.02154493
0.041807175 -0.08892885 -0.11773389 -0.029898705 -0.051981054 0.05479359 0.033844646 -0.014317262
-0.032623425 0.12670766 0.038123608 0.017192068 0.0022201864 0.06641993 0.018132256 0.008826519
0.018532686 -0.022533664 0.042358607 -0.028174851 -0.034631807 0.14253314 -0.003824968 -0.05154181
-0.08688668 0.03898564 0.014452754 0.008125384 0.020425223 0.0109981485 -0.018549604 0.02828709
0.006876832 -0.060605172 0.06363755 -0.012801839 0.004458768 0.02736713 0.0004724376 0.08264273
-0.05336847 -0.04218602 -0.073507264 -0.011356421 0.009077998 -0.009355241 0.030511063 -0.037452873
-0.057304177 -0.018834097 0.102629535 -0.09768054 0.067804776 -0.07774211 0.076352604 0.0497924
0.0312005 0.04016774 0.030249063 0.014684528 0.018575108 -0.15304536 -0.0761463 -0.021166991
0.0038800924 -0.058914248 0.028633885 -0.024401754 0.064909 -0.005654713 -0.07810046 0.07746962
-0.03969597 0.09087273 -0.052322183 -0.054755002 -0.07464216 0.12763795 -0.056722026 -0.034833644
0.110952765 0.015178191 -0.041011296 0.057085626 0.036892235 -0.11216298 -0.00054047536 0.039047293
0.045974843 0.04161175 0.090868965 0.08318298 0.022349158 0.01897393 0.0506406 0.011112236

std.constant6 f4 [80, 80]
00000000: d3f0 9a3c 60fb 6abd cd3b 0abd b3f9 b6bd
00000010: 4258 16bd 82d2 bb3c fd85 15bd a36c 233d
00000020: 503b 28bd 1cc7 8ebb 9b2f 2dbe da6d be3d
00000030: 3ece c0bc c40b 5e3c e040 ba3c 6eef 093d
00000040: e6ff c8bc 6826 b33c 5153 9c3d 9c9b e23c
00000050: 5143 c1bc 18f1 9ebd a7ce 1b3d 5673 d13d
00000060: 9c41 7bbd 8fff 94bc 75a5 823d 0455 f53b
00000070: c80c 043d d9d8 19bd c99f 2a3c 8aed 8b3d
00000080: a6ca ce3c dbad debc 88ef 39bb 6c0a 1b3d
00000090: 8198 b2bc e016 c7ba 0541 0f3d dd88 21bd
000000a0: 527c e03b 7ca8 84bb 1278 253e 05cb d93d
000000b0: eefc 0f3c 6d36 ff3c 8876 6fbc 682e 313d
000000c0: f1cd 863c 8a14 483d b62e 63bd 9041 c63a
000000d0: be5e 0f3d fcda 2b3d a880 9b3d 5826 7dbc
000000e0: 97c4 413d 11eb 683d 5576 1fbd 8c5a 8bbd
000000f0: a9e5 583d 5f73 183e a4bf 00bd 3c38 1fbc
00000100: 9246 a3bd ea51 69bd 9a5a 78bc 6ee4 8f3c
00000110: a1a6 cabc fe1c cabc a943 ef3b 60e9 edba
00000120: e2b2 a83c 7044 87bd f01e bc3b 1099 02bc
00000130: d329 863d 23ae 2c3d 9a4c e6bc 2036 043e
00000140: 4f50 893d 184a a73b 0631 b8bc ff4e bfbd
00000150: 109b b63a 71c5 6bbc 59ff 653c 1010 f1bc
00000160: 08aa df3c c01b a53c 6522 66bd e44b 3c3d
00000170: 5ef5 34bc 623d 70bd e562 ffbc 2bc5 9a3c
00000180: e4a5 80bd bb3c 003d c81b 5c3d 3fb8 093d
00000190: bb22 26bc a66d b73c 3ed0 2e3d d768 6fbb
000001a0: 661c 623d 9ab5 c33c c01a dfb9 1082 dcbc
000001b0: 64a6 aa3c 2d34 de3c 4d30 213c 93e4 be3d
000001c0: be63 12bd f6e5 0ebd 662d ddbc e567 d9bc
000001d0: 8ff1 d8bc 7214 34bb 018b c0bd 363a b7bd
000001e0: acd6 483d 6894 a0bc 6483 e93c 6dbf 603d
000001f0: b0a5 8dbb 906a c2bd d8ab 043c 3e80 2a3d
00000200: 43d0 cfbc 399b 843d 05ad 90bd 14a7 d6bb
00000210: 807d bebb 590b 003e 5ebf dbbb 5e48 453d
00000220: 423b 0a3e a30a a4bd 805f 47b9 6010 a53d
00000230: a25c b8bd 275d dfbc aea3 c5bc 1e9d 203d
00000240: 5f74 353d 3031 95bd 6466 d1bc fcad 5ebd
00000250: fe61 75bc bd26 53bd 17d8 053d c06d 6a3b
00000260: 7dac 98bd 4d16 8e3d f1f1 f2bd 0859 7c3d
00000270: 2005 973d af77 c53d 3dd9 d43c e2a5 e1bd
00000280: fe38 ac3d caf3 4f3d d61a e6bc d83b 0e3c
00000290: 842e 26bd 001b 813b 4914 00be bf13 1b3d
000002a0: 76dd 123e 9875 b53a 75c4 c63d 2e06 483c
000002b0: 9857 9e3d 0508 2fbd 7c84 37bd 5716 ee3b
000002c0: f2d7 b6bc bab8 2ebe 78f0 463d 0f29 28bd
000002d0: 94a5 7dbb 69f8 b03c e00c b4bc 18a5 c93b
000002e0: 4277 153c c67e 3b3d 8c51 8e3d 9223 6dbc
000002f0: 406b 653a 5ec8 f13d 30b0 8f3b 8ebc a2bd
00000300: 56b8 003d d01a e73a 9086 1abd 3ed3 c3bd
00000310: 9adf 8c3c 76fa 0b3d 18a6 9d3d b94a ffbd
00000320: 79f9 2bbc e838 b23c cae4 c2bc 26a2 a8bc
00000330: 43e0 83bd c622 52bd 488a 013b cb5f 8d3d
00000340: 9a92 5d3d 102a 8bbd 9ef7 773d 8268 89bd
00000350: 91b4 96bd 47ee 473d 999b db3b 24ef 47bb
00000360: 001b d4bc 5a52 943c e2d8 97bd 3ab3 563c
00000370: 75f3 16bd bc47 8bbd 584a 2e3d 485b 74bd
00000380: adca 7d3d c70b a93c 9240 2dbd 98bf b83d
00000390: 704a 713d 302a e13c bac5 27bd 3491 4c3c
000003a0: 9d5b 1a3d b2dc fe3b 4592 713d e2ab e1bc
000003b0: 5989 65bd f24e 153d 9ec5 80bc db7c adbc
000003c0: 8aa9 113d 84cb b63d d261 36bd 9365 213d
000003d0: cfd0 20bd 9108 6bbc e2c5 b73d f414 35bb
000003e0: 5c0b 153c 903a 12bd db81 c33d 6bdf 013d
000003f0: e3dc d5bb 21b3 3fbd 4839 edbd 85d2 863d
0.018913662 -0.057368636 -0.033748437 -0.08934345 -0.036705263 0.022927526 -0.036504734 0.039898526
-0.04107219 -0.004357232 -0.16912691 0.09298296 -0.023535844 0.01355261 0.022736013 0.033675604
-0.024536084 0.0218689 0.07633079 0.027662091 -0.02359167 -0.07760829 0.038038876 0.10227077
-0.061341867 -0.018188266 0.06379215 0.0074869413 0.03223875 -0.037560318 0.010414072 0.06832416
0.025243115 -0.02718251 -0.0028371532 0.037851736 -0.021801235 -0.0015189312 0.034974117 -0.039437164
0.0068507576 -0.004048405 0.16159084 0.10634426 0.0087883305 0.031153882 -0.014615662 0.043257147
0.016455622 0.048847713 -0.05546447 0.001512574 0.035002463 0.041956887 0.075928986 -0.015451036
0.047306623 0.0568648 -0.03893121 -0.0680438 0.052953396 0.1488776 -0.031432763 -0.009717997
-0.079724446 -0.056962885 -0.01515832 0.017564978 -0.024737658 -0.024672028 0.007301767 -0.0018151216
0.02059311 -0.0660485 0.0057409927 -0.007971063 0.06550946 0.042158257 -0.028112698 0.12911272
0.06704771 0.005105268 -0.022484314 -0.09341239 0.001393171 -0.014390335 0.01403793 -0.029426605
0.027302757 0.020154834 -0.056185145 0.045970812 -0.011044828 -0.05865229 -0.031175086 0.018892845
-0.06281641 0.031307917 0.05373743 0.033622976 -0.010140116 0.022391152 0.042679064 -0.0036530995
0.055202864 0.023890305 -0.00042553805 -0.026917487 0.020831294 0.027124489 0.009838176 0.09320941
-0.035739653 -0.034887277 -0.026999187 -0.026538799 -0.026482372 -0.0027478007 -0.09401513 -0.0894665
0.049032852 -0.019602016 0.028505035 0.054870058 -0.00432273 -0.094929814 0.008097611 0.041626208
-0.025367862 0.06474919 -0.07064251 -0.006550679 -0.0058133006 0.12504329 -0.0067061624 0.048164718
0.13499168 -0.08009841 -0.00019013695 0.08059764 -0.09002043 -0.027266098 -0.0241259 0.03921234
0.044300433 -0.072847724 -0.025561519 -0.054365143 -0.014976976 -0.051550616 0.032676782 0.0035770983
-0.074547745 0.06937847 -0.11862553 0.061608344 0.073740244 0.096419685 0.025982494 -0.11017968
0.08409308 0.050769605 -0.028088968 0.00868126 -0.040571705 0.003939986 -0.12507738 0.03786063
0.14342293 0.001384425 0.0970544 0.012208505 0.07731551 -0.042732257 -0.04480408 0.0072658467
-0.022319768 -0.17062655 0.048569173 -0.04105478 -0.0038703429 0.021602826 -0.021978796 0.006153714
0.009122672 0.045775197 0.069491476 -0.014473813 0.0008751638 0.11805795 0.004385017 -0.0794612
0.031425796 0.0017631892 -0.037725985 -0.095617756 0.017196465 0.034174405 0.076976955 -0.12465424
-0.010496491 0.02175565 -0.023790736 -0.02058513 -0.06439259 -0.051302694 0.001976626 0.06903037
0.05409489 -0.06795132 0.06053888 -0.067093864 -0.07358659 0.048811223 0.0067018983 -0.003050753
-0.02589178 0.018105675 -0.07414414 0.013104254 -0.036853272 -0.068007916 0.04255137 -0.059657365
0.061960865 0.020635499 -0.042297907 0.090209186 0.05890888 0.027485937 -0.04096005 0.012485791
0.037685025 0.007777774 0.058977384 -0.02754778 -0.056039188 0.03645224 -0.015719231 -0.0211777
0.035562076 0.08925536 -0.044526882 0.03940351 -0.039261635 -0.014345304 0.0897329 -0.0027630897
0.009096947 -0.03570038 0.09546252 0.03170721 -0.006526576 -0.04680169 -0.11583191 0.06583122

std.constant7 f4 [80]
00000000: 6814 0cbb 9fa7 78bc eebd 74bc f626 71bc
00000010: 07bc 203c 9f38 e83b 0398 8aba a099 a4bb
00000020: 6ea6 8d3b c4fc 64bc 96d0 6abc 9e4b 3dbc
00000030: d643 a7bb d415 4fbc 2ff2 443a 3be9 eb3b
00000040: e9ed feba dcb9 34bb d3d3 4cbc def0 36ba
00000050: 9989 6ebc 816e 02bb 79fc f93b 820e ca3a
00000060: 3f38 1ebb ea27 82bc d2b8 b0bc 55ee 51ba
00000070: 7706 3dbc 3608 6dbc 3425 45bc 26f3 5e3b
00000080: 6100 9dbc a29e 5db9 4a7f 3cbc e5a0 9dbc
00000090: c183 3dbc 6c0e 48bc e057 a2bc 95cf 503a
000000a0: cf20 2cbc 5b9c 6dbc 68c8 6dbc 1bca 76bc
000000b0: 2cb3 88bc 75b0 3a3b 2f0a 88bc abb8 26bb
000000c0: 5077 4b3b 024e 4bbc 25b6 0ebb 9320 0ebd
000000d0: 4d74 2dbc 3d69 0abc 1e14 96bc aae8 5bbc
000000e0: 0085 38bb 78b2 64bc 8a52 f43a d4cf 383a
000000f0: 2e55 4a3c d184 26bc 3965 86bc d58d 60bc
00000100: f1bc a8bc 01be 973a dce4 223b 76bb 6abc
00000110: 2c45 62bc b117 843b 315f 11ba 656d 2abb
00000120: 6df1 483b 61ce 73bc b740 bfbb e71e a1bc
00000130: 6cb9 47b8 3023 bdb6 fe33 0dbc 57f9 a2ba
-0.0021374468 -0.015176683 -0.014937861 -0.014718762 0.009810454 0.007086828 -0.0010573867 -0.0050231963
0.0043228185 -0.01397628 -0.014331957 -0.011553673 -0.005104522 -0.012639482 0.0007512895 0.007199434
-0.0019449565 -0.00275766 -0.012501675 -0.0006978641 -0.014559173 -0.0019902291 0.007628974 0.0015415701
-0.0024142412 -0.015888173 -0.021572504 -0.00080082315 -0.011537186 -0.01446729 -0.012032796 0.003401944
-0.01916522 -0.00021135298 -0.011504957 -0.01924176 -0.011567057 -0.01221047 -0.019817293 0.00079655024
-0.010505869 -0.01450261 -0.014513113 -0.015062834 -0.016686998 0.0028486524 -0.016606418 -0.002543966
0.0031046458 -0.012408735 -0.0021776047 -0.034699034 -0.01058681 -0.008447942 -0.01832014 -0.013422171
-0.0028155446 -0.013958566 0.0018640321 0.0007050012 0.01234941 -0.010163502 -0.016405689 -0.01370569
-0.020597907 0.0011577011 0.002485565 -0.014326921 -0.013810437 0.0040311445 -0.00055454957 -0.0026005146
0.003066148 -0.0148807475 -0.005836572 -0.019668056 -4.7617985e-05 -5.6367353e-06 -0.008618353 -0.0012433928

std.constant8 f4 [80]
00000000: 0000 803f 0000 803f 0000 803f 0000 803f
00000010: 0000 803f 0000 803f 0000 803f 0000 803f
00000020: 0000 803f 0000 803f 0000 803f 0000 803f
00000030: 0000 803f 0000 803f 0000 803f 0000 803f
00000040: 0000 803f 0000 803f 0000 803f 0000 803f
00000050: 0000 803f 0000 803f 0000 803f 0000 803f
00000060: 0000 803f 0000 803f 0000 803f 0000 803f
00000070: 0000 803f 0000 803f 0000 803f 0000 803f
00000080: 0000 803f 0000 803f 0000 803f 0000 803f
00000090: 0000 803f 0000 803f 0000 803f 0000 803f
000000a0: 0000 803f 0000 803f 0000 803f 0000 803f
000000b0: 0000 803f 0000 803f 0000 803f 0000 803f
000000c0: 0000 803f 0000 803f 0000 803f 0000 803f
000000d0: 0000 803f 0000 803f 0000 803f 0000 803f
000000e0: 0000 803f 0000 803f 0000 803f 0000 803f
000000f0: 0000 803f 0000 803f 0000 803f 0000 803f
00000100: 0000 803f 0000 803f 0000 803f 0000 803f
00000110: 0000 803f 0000 803f 0000 803f 0000 803f
00000120: 0000 803f 0000 803f 0000 803f 0000 803f
00000130: 0000 803f 0000 803f 0000 803f 0000 803f
1.0 1.0 1.0 1.0 1.0 1.0 1.0 1.0
1.0 1.0 1.0 1.0 1.0 1.0 1.0 1.0
1.0 1.0 1.0 1.0 1.0 1.0 1.0 1.0
1.0 1.0 1.0 1.0 1.0 1.0 1.0 1.0
1.0 1.0 1.0 1.0 1.0 1.0 1.0 1.0
1.0 1.0 1.0 1.0 1.0 1.0 1.0 1.0
1.0 1.0 1.0 1.0 1.0 1.0 1.0 1.0
1.0 1.0 1.0 1.0 1.0 1.0 1.0 1.0
1.0 1.0 1.0 1.0 1.0 1.0 1.0 1.0
1.0 1.0 1.0 1.0 1.0 1.0 1.0 1.0

std.constant9 f4 [80]
00000000: 28b2 953a 596b f73b c82d 593c 4a90 6b3c
00000010: 06b9 3f3c 05cc 12bc a196 93ba d1c3 7e3b
00000020: 4df2 eabb 519d 47bc 2202 503c 630a 183c
00000030: 619e 2d3b 1741 013c 266e 6cbb a156 323c
00000040: ef2b 46bb 4c20 cf3b 2893 2fbc 6e03 45bb
00000050: 2c86 3ebb d94a 8a3b 72fc 29bc 0f1e 823b
00000060: 0eda f6bb bc36 1dbc e537 c53b b2cf b6bb
00000070: 55f3 41bc 85cd 95bc 0604 3fbc 6cfa eabb
00000080: 71ad d43b 9069 023b f994 4ebc 5b17 05bc
00000090: 79cf 593c e380 03bc 2bac 04bc 35dd 803c
000000a0: 1433 66bc 888b 6a3c 14c4 e0bb 982c 7bbc
000000b0: 45a5 963c 8ef2 cfbb 83eb 95bc 1ba0 cf39
000000c0: 6ada 06bc 93b7 3bbc 0328 283c cb0c 5c3b
000000d0: f34f 1f3c d5ce e93b beb8 85ba e658 513c
000000e0: e444 92ba a1e3 593c 4a68 38bb d4e1 88bb
000000f0: 4656 5b3c a0bc da3b 9fd9 8fbc 7d71 3f3c
00000100: b657 e03b c5a7 343b 3a79 94bb 77fc eebb
00000110: ac5e 6dbc bc26 dbbb eb91 8c3b d170 6fba
00000120: 3d2f 98bb cbb9 033c 99ff a1bb ab14 7cbb
00000130: af3d a9bb 54ab 8b3b d8f1 6ebc c99a 163a
0.0011420893 0.0075506386 0.013255544 0.014377663 0.011701828 -0.008959775 -0.0011260101 0.003887404
-0.007169998 -0.012183503 0.012695821 0.00927982 0.0026492106 0.007889054 -0.0036076396 0.010884912
-0.0030238589 0.0063209888 -0.010716237 -0.0030061859 -0.0029071672 0.0042203483 -0.010375129 0.0039708684
-0.0075333184 -0.009595569 0.006018626 -0.0055789584 -0.0118378 -0.018286476 -0.011658674 -0.007170966
0.0064904024 0.0019899346 -0.01260876 -0.008123244 0.013294094 -0.008026334 -0.008097689 0.01573048
-0.014050264 0.014315493 -0.006859312 -0.015330456 0.018389354 -0.0063460534 -0.018300777 0.00039601405
-0.008230785 -0.011457342 0.010263446 0.003357696 0.009723651 0.007135252 -0.0010202152 0.012777543
-0.0011159447 0.0132989 -0.0028138333 -0.0041773114 0.013387268 0.006675318 -0.017559825 0.011684773
0.0068463935 0.0027565819 -0.004531053 -0.0072932797 -0.014487904 -0.006687967 0.0042898557 -0.00091339374
-0.004644303 0.008039902 -0.0049437997 -0.0038464468 -0.005164824 0.0042623673 -0.014584027 0.00057451107

std.constant10 f4 [80]
00000000: f184 10bb 3eae 78bc 4db6 74bc c006 71bc
00000010: 71d9 203c 842d e63b eaf4 86ba b742 a8bb
00000020: dd8d 8a3b 8bff 64bc c0a3 6abc 6927 3dbc
00000030: 3e17 a7bb 6194 4dbc 25e4 423a 0b57 e93b
00000040: 31e3 01bb cb9e 34bb 97ba 4cbc 8eb8 31ba
00000050: 5248 70bc 7ec2 02bb 7b9b f83b 1d55 c33a
00000060: 54ef 1bbb 7d22 82bc 98b5 b0bc 96fc 51ba
00000070: 3d6b 3cbc 881c 6dbc 636b 45bc 8723 5d3b
00000080: ad55 9cbc 587e 92b9 a01e 3bbc cea7 9dbc
00000090: 9e6d 3dbc ca1d 48bc ee5a a2bc 2818 4e3a
000000a0: 1fbb 2cbc 83ba 6dbc 4189 6fbc d506 77bc
000000b0: dcca 88bc 1889 363b c2c9 87bc 5099 28bb
000000c0: 950e 4a3b 7144 4bbc d91e 0fbb 4fb3 0dbd
000000d0: 2de4 2dbc 0cc8 0abc 0df6 95bc c1d7 5bbc
000000e0: 27c8 3abb 0384 64bc 1c66 e23a 1d22 363a
000000f0: aa0d 4a3c 46f1 26bc d105 86bc 80a2 60bc
00000100: 8445 a9bc 8221 963a 4909 243b d8bf 6abc
00000110: 7346 62bc 7a72 823b a6e1 1dba cc5e 2ebb
00000120: 9188 433b e0c4 74bc a0cb bfbb ce89 a1bc
00000130: 56c4 9bb8 fc37 81b8 5133 0dbc 3f19 a5ba
-0.0022051896 -0.015178261 -0.014936042 -0.014711082 0.009817467 0.007024469 -0.0010296379 -0.005134906
0.004228337 -0.013976942 -0.014321268 -0.011545041 -0.005099206 -0.012547583 0.0007434509 0.007120972
-0.0019819255 -0.0027560468 -0.012495658 -0.0006779515 -0.01466568 -0.0019952352 0.007586894 0.0014902685
-0.0023793774 -0.015885586 -0.021570966 -0.00080103555 -0.011500177 -0.014472134 -0.012049529 0.00337431
-0.019083822 -0.00027941423 -0.011420876 -0.019245055 -0.011561779 -0.0122141335 -0.01981875 0.0007861876
-0.01054266 -0.0145098 -0.014620126 -0.0150773125 -0.016698293 0.002785271 -0.016575698 -0.0025726147
0.0030831445 -0.012406454 -0.0021838455 -0.03459483 -0.010613483 -0.008470546 -0.018305803 -0.013418139
-0.0028500648 -0.01394749 0.0017272863 0.00069478323 0.012332359 -0.01018936 -0.016360195 -0.013710618
-0.02066303 0.0011454078 0.0025029948 -0.014327966 -0.013810742 0.003980932 -0.0006022699 -0.0026606796
0.0029836039 -0.014939517 -0.0058531314 -0.01971903 -7.4275464e-05 -6.161627e-05 -0.008618192 -0.0012596025

std.constant11 f4 [80, 13]
00000000: b702 6fbc 1c7b bb3d 947b 0bbe f425 09be
00000010: a263 26bd 0812 013e 910e 76bd a898 eb3d
00000020: 6a0d 6bbd 5315 db3d 278e d7bd c3da 623d
00000030: 73f7 adbd 3acf f53c 0787 b1bd b4f5 3dbb
00000040: 2d0b 5abd c997 6f3d 3dc0 d3bd 5ed9 153e
00000050: ed2e f03c 070f 82bd a7a9 5bbd 9b2d c93d
00000060: 3f68 c5bb 2334 0a3e 3203 d1bd 6d92 9e3c
00000070: 2c35 ee3d 602d 593d bb07 e73d f131 bbbb
00000080: 47d6 253d 422c 7bbd 530c 96bc a727 c8bd
00000090: 7c45 88bd a7ae 8c3c 58a2 5b3d 4a95 3e3d
000000a0: 6cd6 c0bc 2b0e 3dbd f2ba 873c 5d14 3e3d
000000b0: 713b a9bd 6105 9fbd 94e3 aabd e927 623d
000000c0: bb82 b53d 94f5 523d dca9 493d bcc4 f2bd
000000d0: 6b92 fd3d 9ffc 413c 7063 9f3d e6c0 f5bc
000000e0: 3df9 463c c3e1 dcbd 2e01 62bc 5c2c e23d
000000f0: 6bbb a63d fced f93d bb2b df3d 801e 85bd
00000100: 747c dcbd 6811 fbbd dd27 43bd b1cf e93d
00000110: bdbd 6d3d 8f63 83bd cf2d d03d 8990 32bd
00000120: 361a 83bd d602 983c 9f5d bf3d b637 e33d
00000130: a5e2 e33c 3fa5 52bd 01fb c8bd 6b63 333d
00000140: 8b32 9cbc ef00 1d3d 0918 ccbc 41c2 fb3d
00000150: 4888 d13d c1c1 073e e2dc b53d 1846 84bc
00000160: 652e c53d 16b4 fb3d 0359 673a 0e3c 6cbd
00000170: 969c 67bd f5c2 bebd 73d7 4fbd 995e 54bd
00000180: 7093 67bd 6b2f 84bd 3913 dcbd 48fb 82bc
00000190: e929 6ebd 5ddd 4bbd 89ec 3bbd 2e46 0c3e
000001a0: c2c8 b83d 3c6e 833d cb0d c83d 0375 d73c
000001b0: 250f 873d 8d80 90bd 531b 803d d25e e03c
000001c0: bf3a 36bd 8c20 6c3d ff2e 7bbc f0e0 07be
000001d0: 1099 38bd 94b3 ea3d 02dd c93d dd2c 84bd
000001e0: 9204 31bd e05e a4bc 5d27 fc3c 01bd 11bd
000001f0: 1b1e efbc 460e e4bd b142 bd3d 1a9a 3dbd
00000200: 7330 183d 2fd7 72bd 5698 aa3d 4d22 2bbd
00000210: 4472 7c3c 375b 01be 1872 963c 4172 093e
00000220: 7399 1c3d 1f74 ebbd c0f7 a73d 1592 c1bc
00000230: 3aff 57bd f52a ec3d b1f9 48bd 4dca 19bd
00000240: 6102 4bbd c68d d63d 2981 1d3d 7ede f73d
00000250: a0cb 123e 7f19 9cbd d91a 3f3d c86c 6a3d
00000260: 626f f2bc 79d1 123e f071 bd3c 59a0 a33d
00000270: 0415 093e 4a57 00be ad31 273d 0851 7dbd
00000280: c415 02bb d1b1 163d cde3 89bc 995a 063e
00000290: 276e c83c 9e43 0e3d b8e5 8a3c 1485 9b3d
000002a0: 8e09 dc3d 06b4 0f3e 5132 c83d 2c1b f5bd
000002b0: a570 923c 5d77 3f3d 57ae 4b3d e44f 363d
000002c0: 6432 b03c c372 8c3d bdad 65bd 4678 553c
000002d0: 970d 9d3c 2cf7 783d 599a 873d bf63 3b3d
000002e0: 37a8 88bd 1749 853b e986 7b3d 2bba af3c
000002f0: c5c3 3a3c 0d6c 6f3c 28bb adbd 0ae8 87bd
00000300: 5a49 88bb 414a 043e 402f 2bbd 8681 443d
00000310: 248e 943d 8fe0 e7bd ff48 bc3d d0b2 ebbd
00000320: ec35 d3bd 5edf 4fbd d9f6 e3b9 af3a e63d
00000330: f990 8bbd db8e b23c 05a1 50bd 1238 02be
00000340: 0f3a 793d 954e 04be f550 7ebd d8c7 ad3d
00000350: be42 07be cbe1 95bd ad57 bfbd 4c24 5cbd
00000360: 9361 733d 69ff 713c 4a6f db3d 553f fa3b
00000370: c06e 643d cefc cb3c 67fd a03c ae50 f4bd
00000380: 7dea 91bd 8aeb b03d b17b 6abb 37fd a03c
00000390: 3747 04be a60a 9dbd edc0 a13d c00e 883d
000003a0: 0b2b cfbd 27db ecbd 8d8a 223d 0b82 c03c
000003b0: b362 31bc 9964 abbc 9811 65bd b7dd a63d
000003c0: de85 d63d 0f9b 85bd efb6 9bbd 20c3 e33d
000003d0: 5cc1 da3c f75f 133e 5025 4c3d f435 e63d
000003e0: dfc0 dc3d e25f a1bc f13d 563d a748 82bb
000003f0: 3e92 ddbd e7a7 22bd 7198 623d 3094 c23d
-0.01458805 0.091543406 -0.1362136 -0.13393384 -0.04062236 0.12604535 -0.060072485 0.11503726
-0.05738584 0.10697427 -0.1052516 0.05538441 -0.08494463 0.03000604 -0.086683325 -0.0028985562
-0.053233314 0.058494363 -0.10339401 0.146337 0.029319251 -0.063505225 -0.05362859 0.09823152
-0.00602439 0.13496451 -0.102056876 0.01935693 0.116312355 0.05302179 0.11280771 -0.0057127406
0.040487554 -0.061321504 -0.018316424 -0.09773188 -0.06653878 0.017173124 0.05362162 0.046529092
-0.023539744 -0.04615609 0.016568635 0.04640614 -0.08263291 -0.07764698 -0.08344188 0.055213843
0.088628255 0.051503733 0.049234256 -0.1185393 0.12381443 0.011840015 0.07782638 -0.029999208
0.012144384 -0.10785248 -0.013794227 0.11043617 0.08141216 0.12203595 0.10897013 -0.06499958
-0.10765925 -0.12259179 -0.04764544 0.11416567 0.058042277 -0.06415474 0.10164987 -0.04359487
-0.06401484 0.01855604 0.09344029 0.110946104 0.027818033 -0.051427122 -0.098135 0.043795984
-0.01906707 0.03833097 -0.024913805 0.1229291 0.10231072 0.13257505 0.08880021 -0.016146705
0.0962799 0.12290208 0.00088252145 -0.05767446 -0.056545816 -0.09314529 -0.050742578 -0.051848028
-0.05653709 -0.06454357 -0.10745854 -0.01598896 -0.058145437 -0.049771655 -0.045879874 0.13698646
0.090226665 0.0641751 0.09768256 0.026300913 0.065946855 -0.07055769 0.06255212 0.027388964
-0.04448962 0.057648227 -0.015331029 -0.132694 -0.045067847 0.11460033 0.09856607 -0.064538695
-0.04321725 -0.020064771 0.030780489 -0.03558064 -0.02918916 -0.11135535 0.09241236 -0.04628954
0.03715558 -0.059287246 0.08329837 -0.04178076 0.015408102 -0.12632452 0.018364951 0.1342249
0.038232278 -0.11496758 0.082015514 -0.023629228 -0.052733637 0.11531631 -0.04906625 -0.037546445
-0.049562816 0.1047626 0.038453255 0.12102984 0.1433549 -0.076220505 0.046656463 0.057232648
-0.029594127 0.1433772 0.023125619 0.07989568 0.13386923 -0.12533298 0.04081886 -0.061844856
-0.00198494 0.036790673 -0.016832257 0.13120498 0.024466587 0.034732454 0.016955242 0.07593742
0.1074401 0.14033517 0.09775222 -0.11968073 0.017875979 0.046744693 0.04972681 0.044509783
0.021508403 0.068578266 -0.056073893 0.013029164 0.01917152 0.060782596 0.06621236 0.045749422
-0.066727094 0.004067551 0.061407957 0.021451076 0.011399214 0.014613164 -0.08482963 -0.06636055
-0.004159135 0.1291895 -0.041793108 0.047975086 0.07253674 -0.11322128 0.091936104 -0.11508715
-0.10313019 -0.05075013 -0.0004348073 0.11241662 -0.06814761 0.021796634 -0.05093481 -0.12716702
0.060846385 -0.12920602 -0.062088925 0.08485383 -0.13209054 -0.07318457 -0.09342895 -0.053745553
0.059419226 0.014770367 0.10714586 0.0076369443 0.055769682 0.02490082 0.019652082 -0.11929451
-0.07124803 0.086386755 -0.0035779292 0.019651992 -0.12917791 -0.07668047 0.07898126 0.06643438
-0.10115632 -0.115652375 0.039682914 0.02349951 -0.010826754 -0.020921992 -0.05592498 0.081477575
0.10474752 -0.06523716 -0.07603251 0.111212015 0.026703529 0.14392076 0.04984027 0.112407595
0.10778975 -0.01969904 0.052305166 -0.003975946 -0.10818909 -0.039710905 0.05532116 0.09500921

std.constant12 f4 [80, 13]
00000000: 1e45 e93d f218 a5bd 30a1 00bc 0090 d0bc
00000010: fed1 59bd 54e1 1ebd 3cd3 c1bc 00dc 7cba
00000020: b045 b73c 18fb dfbd 9448 6a3d edc8 a8bd
00000030: 4624 2cbd 352d 87bd ba09 bc3d 1452 d0bd
00000040: c0ac ea3b 005f e13c 9090 eb3d b35b d2bd
00000050: b87e 71bc 5c68 523d 9ca2 a33d 8609 053e
00000060: b01a 083e 48ae eabd 8024 acba ecb7 cd3d
00000070: 88c5 1d3d 380d 893d 8033 e83c 79cd cbbd
00000080: 0e4a b93d acfa fd3d f611 e53d 9838 5e3d
00000090: 8cd9 aabd 40fe 03bb b8d3 e5bd 689e a93d
000000a0: 301e e63c b0a7 70bc d432 cebd d08a 2bbd
000000b0: e606 61bd f255 b7bd 9668 003e 5aa4 843d
000000c0: dd1d bcbd 80f9 8abb aeb5 57bd 0859 52bd
000000d0: e801 e43d 125b 073e 28f0 8d3d 6203 64bd
000000e0: fe07 9abd 74fe ce3d 688c c23d a078 0fbc
000000f0: 9075 963d aea6 893d a14b d1bd eca6 093d
00000100: 0819 c7bd 00f0 b03d 82bd 2abd b8e9 bb3c
00000110: 7899 c8bd 4ca8 05be 1c98 ba3d 280b 64bc
00000120: 80ab 80bb 8863 34bd 842d fc3d 2154 85bd
00000130: 9ac3 c93d 3eff 9b3d 9896 23bd a45b 163d
00000140: 4020 aebb 8016 693b 30a5 4d3c 343d bc3d
00000150: 40d3 d1bb 3440 873d 6a82 9abd 88d2 013e
00000160: 80dd d9ba 18ea efbd f023 993d 7e17 8f3d
00000170: da17 d03d 57c4 a9bd 705f 513c c6ae 02be
00000180: f866 78bc 325b 59bd 50ea 58bd f00c afbd
00000190: 4ad3 86bd 2470 c23d 92fd 07bd 606d b0bc
000001a0: e2f6 7abd 94f9 933d dfec 08be 30b4 0a3d
000001b0: 3aaf c9bd d0a5 903c 08fd f23c 785d 3d3d
000001c0: a6c8 1fbd dca6 adbd 3788 e5bd 28f1 0abd
000001d0: 37c9 08be 5e15 a23d 3cb6 a43d 93cc f4bd
000001e0: 00fe e33a b497 e13d e4df 9ebd c07a e53c
000001f0: 50be f33c 4e22 b1bd 948b f03d f4c2 ee3d
00000200: 484d c03c 35e5 cdbd 6017 78bc 005e 723d
00000210: b605 70bd 9451 cb3d 1618 d4bd 347f 633d
00000220: d874 4fbd c8d4 21bd 7659 ccbd 4e11 9b3d
00000230: 00f6 f13d 50cc 783c d369 f2bd 603c 65bd
00000240: 2079 053d 1e4f c9bd deb3 11bd 7054 87bd
00000250: 4071 ef3b 31eb 08be d8df 303d 925a 72bd
00000260: a01d f13d 5ba4 01be 9862 f23c c0b3 f6bd
00000270: d05b bcbc eadd 03be ca12 cfbd 5850 4d3d
00000280: 0e76 c7bd 08fc c8bd 20c8 9fbd 303a 4cbd
00000290: 7581 83bd 463a a83d 7ed3 60bd 2eff d1bd
000002a0: 78ef 4cbc 1610 a53d a8b1 3abd 00b7 2f3b
000002b0: d853 34bc 1e5c ca3d 4037 a83d 78fb 403d
000002c0: d0de 003d 2e4a 8d3d 58a9 9b3c 6c89 f0bc
000002d0: 7d99 00be 387c 743d fe69 03be 9670 943d
000002e0: 2c7d d2bc 7204 b43d b2cb b0bd de8b 44bd
000002f0: 8033 ebbb 96eb 40bd b87a f7bc 80a0 f93b
00000300: e069 af3d 6073 de3c a392 8fbd 041a 2d3d
00000310: 00ac 83bc 9812 ee3c 5882 f13d a0a5 583d
00000320: c029 7f3b 547f 553d 5c97 15bd 106c e5bc
00000330: 6cce dabc f0df 45bd d521 87bd a218 e2bd
00000340: ec1b ccbc f65b bcbd 71ee 85bd 140d aa3d
00000350: d0b5 343d 7032 42bd fabf 41bd 7a58 eebd
00000360: 709d dabd fd7b ecbd 1a0a 75bd a0e0 fc3d
00000370: 8e6a 063e 3254 cbbd 60f8 b83d 6c00 cbbc
00000380: 72fe 993d d4e7 993d f463 9bbc 3080 96bc
00000390: 6c33 cf3d d858 e6bd a602 2cbd e73d 83bd
000003a0: 4092 c93c be2f b63d 8035 b13d f986 f1bd
000003b0: a049 113d 22e4 03be 494f 09be dca7 e2bc
000003c0: 76e2 02bd c6e8 cbbd d424 d3bc b42f f9bc
000003d0: 2fbd debd 8187 01be 5666 ca3d c459 7f3d
000003e0: b8f2 dc3d 8002 023c a07c 08bc f8fa aa3d
000003f0: ece9 513d 3af9 8e3d 3ce1 c93d 4cdc a6bd
0.11390136 -0.080613986 -0.00785093 -0.02545929 -0.05317878 -0.03878911 -0.023660295 -0.00096458197
0.022372097 -0.10936564 0.057198122 -0.082414486 -0.04202678 -0.066004194 0.09181543 -0.10171905
0.0071617067 0.02751112 0.115021825 -0.102713965 -0.014739685 0.051369056 0.0799 0.12991914
0.1329143 -0.11459023 -0.0013133436 0.10044846 0.03851846 0.066919744 0.02834487 -0.099513
0.09047328 0.124013275 0.111850664 0.05425319 -0.08342275 -0.0020140558 -0.11222023 0.08282167
0.028090566 -0.014688417 -0.100682884 -0.04188043 -0.05493822 -0.0895194 0.12539896 0.0647666
-0.091853835 -0.0042411685 -0.052663498 -0.051354438 0.11133176 0.13218334 0.06930572 -0.05566729
-0.07521056 0.10107127 0.094994366 -0.008756787 0.07346642 0.06721245 -0.10219503 0.033606455
-0.09721571 0.08639526 -0.041684635 0.022938594 -0.09794897 -0.13052481 0.09111044 -0.0139186755
-0.0039266944 -0.044040233 0.12313369 -0.06510187 0.09851761 0.07617043 -0.03993854 0.03670849
-0.005313903 0.003556639 0.012551591 0.09191361 -0.006403357 0.06604043 -0.07544406 0.12677968
-0.0016621798 -0.11714572 0.07477558 0.06986903 0.10160799 -0.08289402 0.012779102 -0.12761983
-0.015161268 -0.053065486 -0.052957833 -0.085473895 -0.06583269 0.094940454 -0.033200808 -0.021536529
-0.061270602 0.072253376 -0.13371609 0.033863246 -0.09847875 0.01765719 0.02966167 0.046231717
-0.039009713 -0.084790915 -0.112076215 -0.03392139 -0.13358007 0.07914232 0.08042571 -0.11953082
0.0017394423 0.11015263 -0.077575475 0.028012633 0.029753834 -0.08649121 0.117453724 0.11658278
0.02347435 -0.100534834 -0.015142292 0.059171677 -0.058599196 0.09927669 -0.103561565 0.055541232
-0.05064854 -0.039509565 -0.09978001 0.0757166 0.11814499 0.015185431 -0.118365906 -0.05596578
0.032586217 -0.098295435 -0.035571925 -0.06607902 0.0073072016 -0.13370968 0.043182224 -0.059168406
0.11773229 -0.12660353 0.029588029 -0.12046003 -0.022992998 -0.12877622 -0.101110056 0.05012545
-0.09739314 -0.09813696 -0.07801843 -0.04986018 -0.06421176 0.0821424 -0.054889195 -0.1025375
-0.012508266 0.08059709 -0.045579582 0.0026811957 -0.011006318 0.09880851 0.08213663 0.04711482
0.03146249 0.06898914 0.019001648 -0.029362403 -0.12558551 0.059688777 -0.12833402 0.072480366
-0.025694452 0.087899104 -0.08632602 -0.04798495 -0.00717777 -0.047099672 -0.030209884 0.00761801
0.08565116 0.027154624 -0.070103906 0.04226114 -0.016073227 0.0290616 0.11792439 0.052892327
0.0038934797 0.052123383 -0.0365213 -0.02800563 -0.026709758 -0.048309267 -0.0659825 -0.110398546
-0.024915658 -0.09197228 -0.0653962 0.08303276 0.044118702 -0.047411382 -0.047302224 -0.11637969
-0.1067456 -0.115470864 -0.059824087 0.12347531 0.13126585 -0.09928168 0.09031749 -0.024780475
0.07519235 0.07514921 -0.01896856 -0.018371671 0.1011723 -0.11247414 -0.041994713 -0.06408291
0.02460587 0.08895825 0.086527824 -0.11793322 0.035470605 -0.12879995 -0.13409151 -0.027667932
-0.03195425 -0.099565074 -0.025774397 -0.030418254 -0.10875928 -0.12649347 0.098828 0.062341467
0.107884824 0.007935166 -0.008330494 0.0834865 0.051248476 0.0698113 0.09857413 -0.08147487
